testdata/dnn/onnx/data/input_conv_variable_w_1_0.npy (npy, 1728 bytes, 1 tensors)

array f4 [2, 2, 10, 10]
0.3373702 -0.17777722 -0.3035276 -0.58801186 0.3486052 0.66034096 -0.21963762 -0.37916982
0.76710707 -1.192502 0.6983519 -1.4097229 0.17937961 1.895148 0.49544638 0.26919857
-0.077020235 -1.0204719 -0.16895628 0.9177646 1.5809696 1.3010399 1.2753012 -0.2009531
0.496471 -1.5723042 0.96657157 -1.148144 -1.1588678 0.325471 -0.63150537 -2.839994
-1.3249574 0.17842844 -2.133753 1.0523578 -0.38848308 -0.9343459 -0.4991441 -1.0866526
0.8805443 1.5541586 0.62661606 -0.1754872 0.098283775 -0.09350743 0.26621473 -0.5850355
0.876837 1.622144 -1.477942 1.133107 -1.2202903 1.3138539 1.0532997 0.13880518
2.2473314 -0.80363595 -0.28084245 0.76967627 -0.6595596 -0.7979277 0.18383126 0.22934741
0.514629 0.9937638 -0.25873342 -1.0825512 -0.044381984 1.6235574 -2.322871 1.0878305
0.671555 0.6932953 -0.94872487 -0.07650723 -0.15264037 0.11674119 0.44026044 -1.4465466
0.25529236 -0.54962766 1.0042261 0.8272309 -0.39480877 0.48922777 -0.21681489 -1.7471645
-1.6025081 -1.0763853 0.90314823 -0.7218443 -0.59508425 -0.7112175 0.62296486 -1.3728819
-2.2149894 -1.31931 -2.091499 0.9628518 -0.03186124 -0.47895572 0.7668086 0.027468191
1.9928975 1.3708475 -0.5008678 -0.27927625 -2.0628176 0.0063745286 -0.9895547 0.7016092
-0.9405278 -0.4680642 1.0322014 -0.28300157 0.492753 -0.01407816 -0.27466273 -0.7640915
1.396584 -0.9949107 -0.001582218 1.247089 -0.07710455 1.2773767 -1.4596294 -2.1595278
-0.25821856 -2.0407336 -0.80155665 -0.81830066 -1.1820455 -0.287745 -0.6043007 0.6002367
-1.4052616 -0.5921651 -0.25478685 1.1517473 -0.01785796 0.42640308 -0.7657407 -0.054514185
-1.2742578 0.4512773 -0.2280127 0.9223802 0.20560504 -0.49696305 0.5820589 0.20531952
-0.30176577 -0.6703043 -0.6170963 -0.8333943 0.48386958 -0.13492751 0.21186902 -0.87139505
0.68507993 2.002415 -0.546882 1.6014202 -2.257698 -1.8009446 0.70147467 0.5702837
-1.1765981 -2.0523593 0.11318364 1.4352756 0.08830718 -1.203666 1.096426 2.4209526
0.15382178 -0.44515732 0.55034876 0.06578772 0.6805022 1.2064239 1.6249697 0.34594935
0.13425288 0.7662305 2.27604 -1.3255291 -0.8970153 0.1131772 0.8364717 0.028519973
-0.9796865 -2.1126292 -0.27214485 -0.35099784 1.1151627 -0.6172184 -2.2708333 -1.381871
1.172068 -0.4371629 -0.40527463 0.7086439 0.95331264 -0.01303548 -0.13008846 -0.087660216
-0.0673492 0.24673878 -0.93917316 -1.0447729 1.2783129 0.41902748 -0.50727296 -0.60622895
-1.053245 1.8385509 -0.10953821 -0.33160782 0.90083617 0.48398432 -1.323729 0.78692496
1.3817539 -0.06936721 -0.76116556 0.24162659 -0.5878117 -1.1505842 1.0164442 0.12342521
1.1310816 -0.0858055 -0.059726726 0.35527158 -1.4355006 0.07274797 0.10528017 -1.0311476
1.3113153 -0.03596305 0.21181354 -0.0086248005 1.8576127 2.1320667 -0.5056073 -0.7988389
-1.0943931 -1.0196903 -0.5398647 1.2116834 -0.8632127 1.333719 0.0771015 -0.052181326
00000000: c9bb ac3e 3b0b 36be f867 9bbe f287 16bf
00000010: 617c b23e 1b0c 293f afe8 60be 8c22 c2be
00000020: 2161 443f e8a3 98bf 31c7 323f cd71 b4bf
00000030: 4aaf 373e 3694 f23f 26ab fd3e 65d4 893e
00000040: c9bc 9dbd d39e 82bf e002 2dbe 9ff2 6a3f
00000050: 365d ca3f 7a88 a63f 123d a33f a6c6 4dbe
00000060: 7231 fe3e 4441 c9bf 3c71 773f 62f6 92bf
00000070: c855 94bf 23a4 a63e 56aa 21bf 76c2 35c0
00000080: 3498 a9bf f2b5 363e 698f 08c0 a9b3 863f
00000090: 41e7 c6be 4b31 6fbf d18f ffbe 6f17 8bbf
000000a0: 5a6b 613f abee c63f e969 203f ebb2 33be
000000b0: 0149 c93d d380 bfbd 4c4d 883e e3c4 15bf
000000c0: 6478 603f 6aa2 cf3f 342d bdbf a609 913f
000000d0: 7932 9cbf 5d2c a83f 86d2 863f f222 0e3e
000000e0: 47d4 0f40 16bb 4dbf 95ca 8fbe 8109 453f
000000f0: e6d8 28bf fd44 4cbf 433e 3c3e 0cda 6a3e
00000100: babe 033f 4e67 7e3f b578 84be 0a91 8abf
00000110: e2c9 35bd bbd0 cf3f eba9 14c0 083e 8b3f
00000120: 07eb 2b3f cd7b 313f a2df 72bf d3af 9cbd
00000130: c24d 1cbe 0116 ef3d d169 e13e 7028 b9bf
00000140: aeb5 823e 66b4 0cbf 7b8a 803f 67c5 533f
00000150: 6024 cabe 107c fa3e b904 5ebe 16a3 dfbf
00000160: fc1e cdbf fec6 89bf b934 673f caca 38bf
00000170: 7157 18bf 5a12 36bf a07a 1f3f 98ba afbf
00000180: 63c2 0dc0 26df a8bf 1fdb 05c0 757d 763f
00000190: ee80 02bd af39 f5be 924d 443f f904 e13c
000001a0: 4417 ff3f ee77 af3f df38 00bf 4cfd 8ebe
000001b0: 3405 04c0 6ce1 d03b 7553 7dbf a99c 333f
000001c0: 6ec6 70bf 1ca6 efbe 2d1f 843f 95e5 90be
000001d0: 1f4a fc3e 15a8 66bc 98a0 8cbe 809b 43bf
000001e0: 44c3 b23f 78b2 7ebf 6d62 cfba 9da0 9f3f
000001f0: fee8 9dbd 1481 a33f 23d5 babf b435 0ac0
00000200: 3935 84be 619b 02c0 d132 4dbf 277c 51bf
00000210: 444d 97bf 5053 93be 73b3 1abf 1da9 193f
00000220: 9ddf b3bf 2298 17bf 6c73 82be 756c 933f
00000230: db4a 92bc 8151 da3e 9507 44bf 444a 5fbd
00000240: e11a a3bf d10d e73e 297c 69be 1c21 6c3f
00000250: 218a 523e f171 febe d001 153f 483f 523e
00000260: 0b81 9abe 1099 2bbf 06fa 1dbf 5459 55bf
00000270: c1bd f73e 702a 0abe 31f4 583e bf13 5fbf
00000280: 6661 2f3f 9127 0040 7500 0cbf 56fb cc3f
00000290: 207e 10c0 5a85 e6bf d893 333f 1dfe 113f
000002a0: c49a 96bf db59 03c0 d3cc e73d 1cb7 b73f
000002b0: 65da b43d ba11 9abf b057 8c3f e3f0 1a40
000002c0: 7583 1d3e a9eb e3be a8e3 0c3f b6bb 863d
000002d0: 6435 2e3f 196c 9a3f 02ff cf3f 4620 b13e
000002e0: 9679 093e af27 443f a4aa 1140 f0aa a9bf
000002f0: cba2 65bf 73c9 e73d 0223 563f b8a2 e93c
00000300: bccc 7abf 5135 07c0 9256 8bbe fdb5 b3be
00000310: a7bd 8e3f 0602 1ebf 5555 11c0 26e1 b0bf
00000320: 5306 963f d1d3 dfbe 2880 cfbe b069 353f
00000330: 4c0c 743f c492 55bc e935 05be 3387 b3bd
00000340: 61ee 89bd 17a9 7c3e a76d 70bf 1ebb 85bf
00000350: c29f a33f c58a d63e a4dc 01bf d231 1bbf
00000360: bbd0 86bf a355 eb3f 9255 e0bd 80c8 a9be
00000370: 339d 663f cbcc f73e f46f a9bf ea73 493f
00000380: 50dd b03f 6510 8ebd bfdb 42bf f66c 773e
00000390: d47a 16bf 5846 93bf d81a 823f 5bc6 fc3d
000003a0: 48c7 903f cbba afbd 03a4 74bd 28e6 b53e
000003b0: 7cbe b7bf e3fc 943d 219d d73d a5fc 83bf
000003c0: 2ed9 a73f fe4d 13bd a6e5 583e 094f 0dbc
000003d0: 41c6 ed3f c873 0840 7b6f 01bf b580 4cbf
000003e0: 1315 8cbf 3685 82bf 9334 0abf 7118 9b3f
000003f0: 82fb 5cbf 4eb7 aa3f 64e7 9d3d 16bc 55bd
