testdata/dnn/onnx/data/input_conv1d_bias.npy (npy, 428 bytes, 1 tensors)

array f4 [1, 3, 25]
00000000: a9c8 a5bf e50b 40bf 7eee a7bf f015 60be
00000010: 1cd8 1bc0 5554 95bd 5535 0bbd 9967 763f
00000020: 2047 3dbe f183 bdbe 81ea 9abf 2b69 1fbf
00000030: fe6c edbe f7fc f53f 731a cebe 95c0 fd3d
00000040: 8385 2abf fba8 1b3f 95e2 3abf ea24 62bf
00000050: d47b d6be 1c09 4ebf cbcb 103f db40 1c3f
00000060: 19dd dd3d 193c 41bf a32e 7a3e f75c 9ebd
00000070: 6a62 ee3d c80f 18bf 0a39 9fbf f115 d1bd
00000080: e047 af3f ab0c 2a40 c930 7c3f bdef 84be
00000090: b25a f23d 74d0 793e a211 953f 41c0 933e
000000a0: 812d 9e3f e5f6 0a3f 2889 063f d4cf 443e
000000b0: 13ac 45bf 843e f3bf 4fd0 053e 9c4c 34bf
000000c0: 2e7a f5be 9eca 12be 7174 a2be dc96 773f
000000d0: 99b7 7dbf 076c 9a3e fac8 dbbd da9a 7f3f
000000e0: baa8 9fbc 43b5 7d3f 9f19 47bf a5c8 7c3f
000000f0: 7a70 bebf 2631 163f 2e18 223e 96c8 e13d
00000100: aa9d 51bf f5fc 213f 505c f5bf 14ec a73f
00000110: 05e0 56be 8b1f 483f 7e5c 7d3f 4f55 d43e
00000120: 4e25 c1bf 6e4e 0240 a6bf 063e
-1.2951862 -0.7501815 -1.3119657 -0.21883368 -2.4350653 -0.07291476 -0.03398641 0.9625183
-0.18484163 -0.37014726 -1.2102815 -0.6226985 -0.46372217 1.9217824 -0.40254554 0.12390248
-0.6660997 0.6080472 -0.73001987 -0.88337576 -0.41891348 -0.8048265 0.56560963 0.6103646
0.10833187 -0.75482327 0.24431853 -0.077325754 0.11639865 -0.5939908 -1.2439282 -0.10209263
1.369381 2.6570232 0.9851194 -0.25964156 0.11833705 0.24395925 1.1646006 0.28857616
1.2357637 0.5428298 0.52553034 0.19219905 -0.7721569 -1.9003453 0.13067745 -0.70429397
-0.47944778 -0.14335105 -0.31729463 0.9671457 -0.9910827 0.30160543 -0.107316926 0.9984566
-0.019489635 0.9910471 -0.7777347 0.9874366 -1.4878075 0.58668745 0.15829536 0.11024587
-0.818812 0.63276607 -1.9168797 1.311892 -0.20983894 0.7817313 0.98969257 0.41471335
-1.508951 2.036037 0.13159046
