testdata/dnn/onnx/data/input_conv_variable_w_0_0.npy (npy, 1728 bytes, 1 tensors)

array f4 [2, 2, 10, 10]
0	0xbf901b85	-1.1258398
1	0xbf93808a	-1.1523602
2	0xbe804bd6	-0.25057858
3	0xbede255d	-0.4338788
4	0x3f594515	0.84871036
5	0x3f312783	0.69200915
6	0xbea1cc6d	-0.31601277
7	0xc0075fc1	-2.1152194
8	0x3ea50138	0.32227492
9	0xbfa1b4f4	-1.2633348
10	0x3eb330ff	0.3499832
11	0x3e9dc3bb	0.30813393
12	0x3df56f77	0.11984151
13	0x3f9e6b93	1.2376579
14	0x3f8ef28e	1.1167772
15	0xbe7d367c	-0.24727815
16	0xbfad23c2	-1.3526537
17	0xbfd91446	-1.6959312
18	0x3f111004	0.5666506
19	0x3f4b235d	0.79350835
20	0x3f194d8b	0.59883946
21	0xbfc70d5b	-1.5550951
22	0xbeaec6ca	-0.3413604
23	0x3fed2f4e	1.8530061
24	0x3f400c6b	0.7501895
25	0xbf15e32b	-0.58549756
26	0xbe318eeb	-0.17339675
27	0x3e3be1a4	0.18347794
28	0x3fb1d6c0	1.3893661
29	0x3fcb0d00	1.5863342
30	0x3f72409c	0.94629836
31	0xbf57fb33	-0.84367675
32	0xbf1d13c8	-0.6135831
33	0x3d016764	0.03159274
34	0xbefc4028	-0.49267697
35	0x3e7e6070	0.24841475
36	0x3ee11fd0	0.43969584
37	0x3de637d6	0.112411186
38	0x3f240af8	0.64079237
39	0x3ee1df3c	0.44115627
40	0xbdd187b9	-0.10230965
41	0x3f4add9c	0.792444
42	0xbe944f53	-0.2896677
43	0x3d571217	0.052507486
44	0x3f05da2f	0.52286047
45	0x40135755	2.3022053
46	0xbfbc04b7	-1.4688939
47	0xbfcb189e	-1.5866888
48	0xbf2c4f9f	-0.6730899
49	0x3f5f71de	0.8728312
50	0x3f8715f4	1.0553575
51	0x3e361caa	0.17784372
52	0xbe6bdd10	-0.23033547
53	0xbec89408	-0.3917544
54	0x3f0b155d	0.5432947
55	0xbeca5217	-0.39515755
56	0xbee47694	-0.44621718
57	0x3f3e7824	0.7440207
58	0x3fc2af75	1.5209795
59	0x405a45ad	3.4105027
60	0xbfc3fdd9	-1.5311843
61	0xbf9df823	-1.234135
62	0x3fe8ecc2	1.8197253
63	0xbf0d30fc	-0.5515287
64	0xbf11ba3e	-0.5692481
65	0x3f6b833f	0.9199714
66	0x3f8e2f39	1.1108161
67	0x3fa51a98	1.2898741
68	0xbfbd34ce	-1.478174
69	0x40244d8b	2.5672328
70	0xbef23cc2	-0.4731198
71	0x3eabcd4f	0.33555076
72	0xbfd08dc1	-1.629326
73	0xbf0cbc00	-0.54974365
74	0xbef5acd6	-0.47983426
75	0xbeffd642	-0.49968153
76	0xbf8892d0	-1.0669804
77	0x3f8eb657	1.1149396
78	0xbe100c2c	-0.14067143
79	0x3f4e45de	0.8057536
80	0xbdbf2d5c	-0.093348235
81	0x3f2fe286	0.6870502
82	0xbf569bd6	-0.83831537
83	0x3a69c925	0.00089182175
84	0x3f57865f	0.8418941
85	0xbeccd147	-0.40003416
86	0x3f850d17	1.039462
87	0x3eb75fd8	0.3581531
88	0xbe7be7ac	-0.24600095
89	0x40135c6e	2.3025165
90	0xbff0db31	-1.8816892
91	0xbd4bae90	-0.049727023
92	0xbf85c1dc	-1.0449786
93	0xbf74dd3d	-0.9565008
94	0x3d0958b4	0.03353186
95	0x3f35c83c	0.7100866
96	0x3fd2abc5	1.645867
97	0xbfae1a04	-1.3601689
98	0x3eb06ae1	0.34456542
99	0x3f05160d	0.5198677
100	0xc02740ad	-2.6133225
101	0xbfd92613	-1.6964744
102	0xbe69b837	-0.22824179
103	0x3e8f5643	0.279955
104	0x3e7cda46	0.2469264
105	0x3d9d76ef	0.076887004
106	0x3ead0f19	0.3380058
107	0x3ee8a759	0.45440176
108	0x3ee9f40f	0.45694014
109	0xbf5d88fa	-0.86537135
110	0x3f4803cc	0.78130794
111	0xbf6d4212	-0.9267894
112	0xbe6015f0	-0.21883368
113	0xc01bd81c	-2.4350653
114	0xbd955455	-0.07291476
115	0xbd0b3555	-0.03398641
116	0x3f766799	0.9625183
117	0x3eb2c62e	0.34916824
118	0xbf6be4ef	-0.921462
119	0xbd662c81	-0.056194786
120	0xbf1f692b	-0.6226985
121	0xbeed6cfe	-0.46372217
122	0x3ff5fcf7	1.9217824
123	0xbece1a73	-0.40254554
124	0x3dfdc095	0.12390248
125	0x3f9517a0	1.1647835
126	0x3f6c6235	0.9233735
127	0x3fb192e4	1.3872952
128	0xbf6224ea	-0.88337576
129	0xbed67bd4	-0.41891348
130	0xbf4e091c	-0.8048265
131	0x3f10cbcb	0.56560963
132	0x3f1c40db	0.6103646
133	0x3eef0b5c	0.46688354
134	0x3ff9af22	1.9506571
135	0xbf88139d	-1.0630985
136	0xbd9e5cf7	-0.077325754
137	0x3dee626a	0.11639865
138	0xbf180fc8	-0.5939908
139	0xbf9f390a	-1.2439282
140	0xbdd115f1	-0.10209263
141	0xbf844b50	-1.0335484
142	0xbea01232	-0.31263882
143	0x3e7baf30	0.24578547
144	0xbe84efbd	-0.25964156
145	0x3df25ab2	0.11833705
146	0x3e79d074	0.24395925
147	0x3f9511a2	1.1646006
148	0x3e93c041	0.28857616
149	0x3ec5f024	0.38659775
150	0xbe4de3b3	-0.20106392
151	0xbdf183b4	-0.117926985
152	0x3e44cfd4	0.19219905
153	0xbf45ac13	-0.7721569
154	0xbff33e84	-1.9003453
155	0x3e05d04f	0.13067745
156	0xbf344c9c	-0.70429397
157	0x3ea1231b	0.31472096
158	0x3e212b9a	0.15739289
159	0x3ec54e43	0.3853627
160	0x3f7796dc	0.9671457
161	0xbf7db799	-0.9910827
162	0x3e9a6c07	0.30160543
163	0xbddbc8fa	-0.107316926
164	0x3f7f9ada	0.9984566
165	0xbeff578b	-0.49871477
166	0x3f42d82a	0.7611109
167	0x3f1e48f7	0.61830086
168	0x3ea0caf9	0.31404856
169	0x3e5a73f7	0.213333
170	0xbdf5dd36	-0.12005083
171	0x3eb88e2d	0.36045972
172	0xbea0c932	-0.314035
173	0xbf8a131b	-1.078708
174	0x3e769708	0.24081051
175	0xbfb2b793	-1.3962272
176	0xbd877688	-0.06614405
177	0xbeb77a51	-0.35835508
178	0xbfc7e141	-1.5615617
179	0xbeb593ce	-0.3546433
180	0x3f8a6096	1.0810726
181	0x3e06a22f	0.13147806
182	0x3fc969b4	1.5735383
183	0x3f480bcb	0.78142995
184	0xbf8a1177	-1.078658
185	0xbf388d8c	-0.72090983
186	0x3fbc42ef	1.4707927
187	0x3e8d2008	0.275635
188	0x3f2ab22a	0.66678107
189	0xbf7e9052	-0.99438965
190	0xbf983d14	-1.189364
191	0xbf9914df	-1.1959494
192	0xbf0f43eb	-0.5596301
193	0x3f08919c	0.5334718
194	0x3ed05371	0.4068866
195	0x3eca073f	0.39458653
196	0x3e2fa092	0.17151096
197	0x3f604478	0.87604475
198	0xbe92fd1f	-0.2870874
199	0x3f82c51a	1.0216401
200	0xbd985c5d	-0.07439492
201	0xbf8bcdfc	-1.0922236
202	0x3ec8b7b0	0.39202642
203	0x3f1832dd	0.5945261
204	0x3f298acb	0.66227406
205	0xbf9a681e	-1.2063024
206	0x3f1b812b	0.6074397
207	0xbf0c1278	-0.5471568
208	0x3f95e63e	1.1710889
209	0x3dc7ac0e	0.09749614
210	0x3f769fb7	0.96337456
211	0x3f571f6c	0.8403232
212	0xbfa077c2	-1.2536547
213	0x3f7ca14a	0.9868361
214	0xbefd436d	-0.49465504
215	0xbfa43ac1	-1.283043
216	0x3f74896b	0.95522183
217	0x3fa44c46	1.2835777
218	0xbf2a75e0	-0.6658611
219	0x3f10ac9a	0.5651337
220	0x3e934ddc	0.2877034
221	0xbd08b3ff	-0.033374783
222	0xbf87ebf6	-1.0618885
223	0xbdea5845	-0.11442617
224	0xbeafc9b6	-0.3433358
225	0x3fc91f35	1.5712649
226	0x3e4436b1	0.19161488
227	0x3ec287bd	0.37994185
228	0xbe143b30	-0.14475703
229	0x3f233aec	0.6376178
230	0xbe900546	-0.28129023
231	0xbfaa3959	-1.3298751
232	0xbe116b47	-0.1420108
233	0xbf08bdc7	-0.5341458
234	0xbf05fc2b	-0.523379
235	0x3f5c8b8b	0.86150426
236	0xbf631005	-0.8869632
237	0x3f56b9f0	0.8387747
238	0x3f939211	1.1528951
239	0xbfe16baa	-1.7610981
240	0xbfbd26ad	-1.4777428
241	0xbfe0b9d5	-1.7556711
242	0x3d9bfcf8	0.07616609
243	0xbf8a0fad	-1.0786034
244	0x3fb85d22	1.4403422
245	0xbde27f35	-0.11059419
246	0x3f13ad1d	0.57686025
247	0xbe2d3bf9	-0.16917409
248	0xbd831f79	-0.06402487
249	0x3f84eb21	1.0384256
250	0x3f682596	0.9068235
251	0xbef3768d	-0.47551385
252	0xbf5ee90d	-0.8707436
253	0x3e14377b	0.14474289
254	0x3ff390cd	1.9028565
255	0x3ec7e1f5	0.3903958
