testdata/dnn/onnx/data/input_conv3d_bias.npy (npy, 560 bytes, 1 tensors)

array f4 [1, 2, 3, 4, 5]
000000 3e e6 95 3f 0e ac c7 3d b7 9f 76 3f 6c 1f 57 3f
       1.1710889 0.09749614 0.96337456 0.8403232
000010 c2 77 a0 bf 4b a1 7c 3f 6d 43 fd be c1 3a a4 bf
       -1.2536547 0.98683614 -0.49465504 -1.283043
000020 6b 89 74 3f 46 4c a4 3f e0 75 2a bf 9a ac 10 3f
       0.95522183 1.2835777 -0.6658611 0.5651337
000030 dc 4d 93 3e 00 b4 08 bd f6 eb 87 bf 45 58 ea bd
       0.2877034 -0.033374786 -1.0618885 -0.11442617
000040 b6 c9 af be 35 1f c9 3f b1 36 44 3e bd 87 c2 3e
       -0.3433358 1.5712649 0.19161488 0.37994185
000050 30 3b 14 be ec 3a 23 3f 46 05 90 be 59 39 aa bf
       -0.14475703 0.6376178 -0.28129023 -1.3298751
000060 47 6b 11 be c7 bd 08 bf 2b fc 05 bf 8b 8b 5c 3f
       -0.1420108 -0.5341458 -0.523379 0.86150426
000070 05 10 63 bf f0 b9 56 3f 11 92 93 3f aa 6b e1 bf
       -0.8869632 0.8387747 1.1528951 -1.7610981
000080 ad 26 bd bf d5 b9 e0 bf f8 fc 9b 3d ad 0f 8a bf
       -1.4777428 -1.7556711 0.07616609 -1.0786034
000090 22 5d b8 3f 35 7f e2 bd 1d ad 13 3f f9 3b 2d be
       1.4403422 -0.11059419 0.57686025 -0.16917409
0000a0 79 1f 83 bd 21 eb 84 3f 96 25 68 3f 8d 76 f3 be
       -0.06402487 1.0384256 0.9068235 -0.47551385
0000b0 0d e9 5e bf 7b 37 14 3e cd 90 f3 3f f5 e1 c7 3e
       -0.8707436 0.14474289 1.9028565 0.3903958
0000c0 1a 45 21 bd 48 2d 4d bf fc b7 fd be 5f 18 b9 be
       -0.03937254 -0.8014722 -0.4955443 -0.36151406
0000d0 fb c9 15 3f 06 f8 93 bf 3e ce 12 be 14 6a 47 be
       0.5851132 -1.1560066 -0.14336488 -0.1947406
0000e0 de 3b af bd a1 7f b2 3f 71 ce 18 3f e6 37 f7 be
       -0.08556341 1.3945199 0.59690005 -0.48284835
0000f0 47 71 bb be db dc a9 bf ec fe d8 3f 25 31 04 40
       -0.3660986 -1.3270525 1.6952796 2.0654995
000100 9a 92 6f be d0 12 35 3f 08 7e 14 3f e4 5e 89 3e
       -0.23395768 0.7073183 0.5800481 0.26830208
000110 a7 c5 03 c0 94 b5 08 3f a4 0f 09 bf 26 19 5d bf
       -2.0589387 0.53402066 -0.5353949 -0.863665
000120 57 77 c0 bc 47 f9 95 3f ba 20 cc 3e 15 7c 4b be
       -0.023494406 1.1716698 0.39868718 -0.19871552
000130 de f5 93 bf 82 22 a2 be 60 b7 70 3f 68 cf 92 bf
       -1.1559408 -0.31666952 0.9402981 -1.1469545
000140 bc 0d 0f 3f af b0 4a 3f a5 1b 3d be 71 55 3b bf
       0.5588033 0.7917585 -0.18467577 -0.7317725
000150 d5 2c a5 bd 43 e5 7a bf e7 c5 77 3d 42 58 fa be
       -0.08065192 -0.98006076 0.06049147 -0.4889546
000160 b1 50 50 bf 2e eb 51 3f a7 17 22 bf 86 ba a5 3f
       -0.81373125 0.8199948 -0.6331734 1.2947547
000170 fd 3d bb 3f bd d4 1e bf 14 07 7d 3f 74 46 dd be
       1.4628292 -0.6204336 0.98838925 -0.43217814
000180 46 8b 1f bf 6b 6f 5d be ab 33 fa be f2 75 49 3f
       -0.6232189 -0.21624534 -0.48867545 0.78695595
000190 87 58 dc 3d 2e 26 89 bf 06 e5 ee bd 19 2c 82 bf
       0.10759073 -1.0714777 -0.116647765 -1.0169708
0001a0 a6 90 95 3f 10 37 45 3f 98 06 c8 3e ec 44 94 3e
       1.1684768 0.77037144 0.3906753 0.28958833
0001b0 70 7b 30 c0 6c 15 55 bf 63 df fa 3e 96 e6 94 3e
       -2.757534 -0.8323581 0.48998556 0.29082173
0001c0 31 c9 90 bf 79 5d 74 ba 29 99 26 be 1b aa 7d be
       -1.1311399 -0.000932179 -0.16269363 -0.24771921
0001d0 8d dc 1a 40 63 a3 d2 3f 24 0d 9e be 78 e2 c1 bf
       2.4197114 1.6456112 -0.308694 -1.5147238
