testdata/dnn/onnx/data/input_deconv3d_bias.npy (npy, 1088 bytes, 1 tensors)

array f4 [1, 3, 5, 4, 4]
000000 fc 09 b8 be 13 6d 80 3f 81 12 f1 3e a9 0e 9f be
       -0.35945117 1.0033287 0.4708443 -0.31065872
000010 d1 b5 ae bf 31 c3 50 bd b2 3f b2 3f ef 0a 13 40
       -1.3649236 -0.0509674 1.3925688 2.2975423
000020 d0 7e 4a bf 23 20 d1 3e 6e 57 0c 3f fb 26 d3 bf
       -0.7909975 0.4084483 0.5482091 -1.6496271
000030 86 76 1f bf 96 a1 a8 bf c3 81 b7 3b c9 60 11 3f
       -0.6229023 -1.3174312 0.0056001856 0.5678831
000040 42 cf e7 3f a3 59 eb 3f b9 1f 28 3e 25 cf b7 3f
       1.8110125 1.838673 0.16418351 1.436009
000050 d2 04 2b 3e 14 21 82 3f 57 b4 a4 3f 9e 3f 05 40
       0.16701058 1.0166345 1.2867535 2.082008
000060 d6 53 a3 3d a4 c9 5d 3e d1 1d 88 be 9d 32 07 bf
       0.07974975 0.21658951 -0.26585248 -0.52811605
000070 58 61 e7 be 9f 6c e4 bf 8a 0b 32 3f 49 32 1d c0
       -0.45191455 -1.7845649 0.6954886 -2.4561942
000080 27 ce 6f 3e 5e 09 f4 be a5 68 16 be d0 d3 90 3e
       0.23418485 -0.47663397 -0.14688356 0.282866
000090 28 de dd be 63 e8 36 3f 3c 2e 58 3f 49 39 8f 3d
       -0.43333554 0.71448344 0.8444555 0.06993348
0000a0 db 05 2e 3d 57 27 a5 bf 8f f9 18 3f 07 60 4c 3f
       0.042486053 -1.290263 0.59755796 0.79834026
0000b0 85 50 a1 3f ae 17 ec 3e 08 b0 1d 3f 78 4b 60 be
       1.2602698 0.46111816 0.6159673 -0.21903789
0000c0 a5 1f d6 3f d9 7e a5 3f 05 f8 28 bf 48 5f 87 3f
       1.6728407 1.2929336 -0.6600345 1.0575953
0000d0 62 15 d0 3e 08 cf da be 9b 77 50 3f eb be b4 bf
       0.40641314 -0.42736077 0.81432503 -1.4120764
0000e0 03 9a b0 3d 95 9e ba 3c 99 e1 8f be 58 d3 84 bf
       0.086231254 0.022780696 -0.28101805 -1.0376997
0000f0 62 ac 92 3f 56 2c b5 be f5 ab 8c bf 74 7a 03 c0
       1.1458857 -0.35385388 -1.0989977 -2.054349
000100 c2 44 36 3e 97 3e 10 c0 8b c3 ee 3f 00 e6 09 bf
       0.17799667 -2.2538202 1.8653425 -0.5386658
000110 e5 47 32 3e b2 e0 c1 bf 22 98 89 3f e5 ee 4f 3d
       0.17410238 -1.5146697 1.0749552 0.050764937
000120 14 bd ad bf 14 5c 3a 40 a3 bb f9 3d 0a 0e e7 be
       -1.3573327 2.91187 0.12193992 -0.45127898
000130 96 ad 9e 3f 97 04 39 bf bd d0 07 40 af a7 4c 3d
       1.2396724 -0.7227263 2.1221154 0.049964603
000140 34 7f 8b bf d6 24 3f bf 25 4a 71 bf 60 33 a0 bf
       -1.0898194 -0.7466558 -0.9425376 -1.2515678
000150 e5 79 dd bf cf b3 a5 bf fc 80 33 3f 35 73 f4 bf
       -1.7302824 -1.2945498 0.7011869 -1.9097658
000160 a8 7c 41 be 0d c5 ff be e1 43 c0 3f 5c 34 67 bc
       -0.18895209 -0.49955025 1.5020715 -0.014111605
000170 a5 d6 98 3f e7 5c b5 3e f7 9c 14 3f 96 26 17 3d
       1.1940504 0.3542244 0.5805201 0.036902033
000180 12 17 bb be 64 4f b6 3c 80 d0 7c 3f c6 92 0f bf
       -0.3654104 0.022254653 0.98755646 -0.56083333
000190 39 3c e2 3d f8 52 63 3f b0 be 6c bf f9 ef a5 3e
       0.11046643 0.88798475 -0.92478466 0.32409647
0001a0 8e 03 57 be f0 7f 7f bf c1 6a bb 3f c2 73 01 3e
       -0.2099745 -0.9980459 1.4641954 0.12641814
0001b0 60 0f 16 bf 90 54 cd be 21 e5 5c 3e 4b 87 a4 3f
       -0.5861721 -0.4010358 0.2157178 1.2853788
0001c0 21 1e d7 be b5 2b 59 bf 96 b8 b9 3e 44 04 0b 3f
       -0.42015174 -0.84832317 0.3627364 0.54303384
0001d0 c8 88 b7 bf 37 c3 8a bf e9 d3 03 be 15 5b 2e bf
       -1.4338617 -1.0840825 -0.12873806 -0.6810773
0001e0 17 dc af bf 66 4f c4 3f c3 6d 08 bf 15 e9 d6 be
       -1.3739041 1.533673 -0.53292483 -0.41974702
0001f0 5d 7f 34 bf 50 cb 8c 3e 0c 10 4c 3e e1 76 df 3d
       -0.7050684 0.27498865 0.19927996 0.10911346
000200 a4 61 9b 3e 06 05 fc bc 68 8c 5f bf 45 fd 73 3e
       0.3034793 -0.030764114 -0.8732362 0.23827083
000210 4b 0e ee be 4c fd 20 3f ac b7 81 3f a0 a7 4c bf
       -0.4649528 0.628865 1.0134177 -0.79943275
000220 5a b2 a6 3f dc 16 00 bf 32 2e e2 be 4e 90 b0 be
       1.3023179 -0.5003488 -0.4417587 -0.34485096
000230 38 5f e0 bf eb fd 94 3d 2b b8 12 c0 0e 81 09 3f
       -1.7529058 0.072749935 -2.2924907 0.53712547
000240 34 6e c4 be 3e 8c 98 3e df 9a e7 3f 67 fa ba bd
       -0.38365328 0.29794496 1.8094138 -0.09129792
000250 07 df 8b 3f e8 d8 0f bf a4 f8 29 3f e1 9c 06 c0
       1.0927438 -0.5619035 0.6639502 -2.1033251
000260 03 4c 36 3f f8 ff e8 3f 6e 21 5a bf de cb ae be
       0.71209735 1.8203115 -0.8520726 -0.34139913
000270 c2 6b 0d be 38 f8 07 40 e4 99 b1 3f b8 c0 4f 3f
       -0.13810638 2.124525 1.3875089 0.8115344
000280 ec 4c 79 3e e7 cd c3 3f 5f 18 be bf 08 65 95 3f
       0.2434575 1.5297211 -1.4851187 1.1671457
000290 a3 37 85 bf 5e 69 17 bf d1 52 d9 3e 4d bc 9e bf
       -1.0407604 -0.5914515 0.42445996 -1.2401215
0002a0 eb c6 8d 3b 19 2b 50 3e 4e 66 ae 3f 77 cc 41 bf
       0.0043266914 0.2032894 1.3624971 -0.75702614
0002b0 65 5f ad be 1d 8c c6 bf 53 dc f1 3e 86 51 2f c0
       -0.33861843 -1.5511509 0.47238407 -2.7393508
0002c0 7c a6 fb 3e 15 49 f3 be bf 1a 3a 3f fb f6 01 bf
       0.49150455 -0.47516695 0.7269706 -0.5076749
0002d0 8a a6 52 bf db bd 8f bf cf f7 1e 3f 62 5b 60 bf
       -0.8228537 -1.1229814 0.62096876 -0.8763944
0002e0 b0 41 77 bf d1 33 bd 3f 6d cc e8 bf 3a d2 c0 3f
       -0.96584606 1.4781438 -1.8187386 1.5064156
0002f0 8b 26 3d 3f ab ff 99 bd a1 3e 28 3e 5d 48 e1 3c
       0.73886937 -0.07519468 0.16430141 0.027500326
000300 b8 ca 79 3f c2 b5 21 bf 20 40 81 bf 46 f3 63 be
       0.9757495 -0.63167965 -1.0097694 -0.2226077
000310 0f 3c 00 40 50 be 52 be 5f 0b 4f bf 37 e8 ed 3e
       2.0036657 -0.20580411 -0.80876726 0.46466228
000320 a4 f1 fb 3e 27 24 67 bf d2 18 3f bd 7f e5 06 40
       0.49207795 -0.9028954 -0.04665453 2.1077573
000330 fe c0 65 3e 5d 4f 0e 3f f1 2c b4 bf 94 90 e2 3d
       0.22436902 0.5558985 -1.4076215 0.11062732
000340 7a ed 29 be 56 29 a2 3f 42 08 fe be 7f da 21 3e
       -0.16594496 1.2668865 -0.49615675 0.15806006
000350 11 51 fa 3e d7 16 b0 be 93 99 6a 3e d0 8a df 3e
       0.48889974 -0.34392425 0.22910146 0.43660593
000360 c0 06 0e bd 06 f1 6a 3e a4 28 70 3e ea 45 a4 3e
       -0.034674406 0.22943506 0.23453003 0.3208459
000370 fc 31 34 3f 05 0f 7c bf 07 3c 4f 3e 06 cd d4 3e
       0.7038877 -0.9846042 0.20237742 0.4156267
000380 a4 75 e0 3f bb 76 a7 bf 17 f6 e5 be 54 18 1b 3e
       1.7535901 -1.3083109 -0.44914314 0.15145999
000390 42 04 a2 3c bd a8 6c bd a6 f4 95 3f 16 5e c2 bf
       0.01977742 -0.05777811 1.1715286 -1.5184963
0003a0 52 ec b0 3c b5 62 98 3e 1e fb 1c c0 18 74 71 3f
       0.021597061 0.29762807 -2.452827 0.9431777
0003b0 a4 ec 45 3f 2f 90 8c bf 1b 81 1e 3e 60 0e b3 bf
       0.7731421 -1.0981501 0.15478937 -1.3988762
