testdata/dnn/layers/layer_interp.npy (npy, 6200 bytes, 1 tensors)

array f4 [2, 3, 17, 15]
00000000: 9f13 783d 4cad 03be c0af a2be f38f dcbe
00000010: 1338 0bbf a865 dbbe 295b a0be 71be 0cbe
00000020: c0e5 1c3d 1a8a 8c3e bebb 023f 28eb d03e
00000030: d55e 9c3e 3dfd b73d 6dc0 00be f64b 38bd
00000040: 69ed 11be d4c7 75be 597e 94be c818 aebe
00000050: c875 7dbe 00ba 1ebe a01c 18bd 5f57 a53d
00000060: 9955 653e c1ff bb3e 4e4f 9b3e b83d 753e
00000070: 385d da3d 0004 d7bc e32a 1abe 862d 20be
00000080: 2830 26be 7ed9 18be d382 0bbe 8040 88bd
00000090: c094 503b 4260 813d de3b fc3d fe96 313e
000000a0: 0c10 653e e966 4b3e c6bd 313e 32bd fc3d
000000b0: dafe 953d 6421 83be a36d 2ebe f930 adbd
000000c0: 9064 0bbc d557 8a3d 8f6a ea3d a63e 253e
000000d0: 6a67 273e 2e90 293e c4b0 fb3d 2b41 a43d
000000e0: 6a5e c03d a97b dc3d 978e 0f3e 5adf 303e
000000f0: 572d b9be c0ad 3cbe 201a e0bb ec6c 073e
00000100: 54ed 8a3e 6845 973e 7c9d a33e 5a0f 873e
00000110: 6e02 553e 8d33 943d c29d 81bd f187 30bc
00000120: 8cf7 2a3d 94be 203e a35f 8b3e 9982 cebe
00000130: d97b 30be 0136 703d dc60 693e 1c5a cb3e
00000140: d232 c33e 880b bb3e 526e 883e 36a2 2b3e
00000150: 5440 68bc 40aa 48be b583 f9bd d065 43bd
00000160: 36d2 e43d d6d5 8a3e dbd7 e3be f249 24be
00000170: a437 fe3d 66aa a53e 72e3 053f 3c20 ef3e
00000180: 9479 d23e 4acd 893e fe41 023e a243 cebd
00000190: d042 a8be 367b 6ebe cb70 0cbe 4527 883d
000001a0: 084c 8a3e bbbf b7be 0868 c6bd 6e17 293e
000001b0: 1c75 a83e 825e fc3e f492 b93e cc8e 6d3e
000001c0: a4cb 9c3d 5286 a1bd febe 84be 681c e1be
000001d0: ef9b b6be 761b 8cbe 8899 d2bd c73a 8b3d
000001e0: 9ba7 8bbe 5878 08bd 0a13 533e d23f ab3e
000001f0: 1ff6 ec3e ac05 843e c0a9 583d e09d edbd
00000200: 28e4 91be 14ed d5be 00fb 0cbf 43fa f5be
00000210: 86fe d1be 9556 8bbe 495d 09be f51e 3fbe
00000220: c4be f73c a60e 7d3e 880a ae3e bc8d dd3e
00000230: c7f0 1c3e ec39 01be d801 9ebe bb66 fbbe
00000240: 958d 13bf cc67 29bf 4cac 1abf ccf0 0bbf
00000250: c806 e2be fa2b acbe 69dd cdbd 8e1b c03d
00000260: 2185 933e 3ed5 b03e 5a25 ce3e d858 473d
00000270: 244f 9cbe 1c4e 00bf a774 32bf a024 3cbf
00000280: 99d4 45bf 765b 3abf 54e2 2ebf 7e5b 1cbf
00000290: a8d4 09bf f28c eebd 3ac1 ba3d da03 993e
000002a0: c6f0 bc3e b3dd e03e 335b c63d 3360 7bbe
000002b0: 4400 e5be 3828 26bf f2d4 35bf ad81 45bf
000002c0: df65 36bf 114a 27bf 6ceb 0dbf 8c19 e9be
000002d0: 3e9e 07be e666 b53d 9282 9e3e 4f0c c93e
000002e0: 0c96 f33e fd84 143e 1e22 3ebe 5064 c9be
000002f0: c8db 19bf 4485 2fbf c12e 45bf 4870 32bf
00000300: ceb1 1fbf b2f6 febe c989 bebe 053a 4cbe
00000310: f492 583d c041 9c3e 40d0 d93e 61af 0b3f
00000320: ad0a 8a3e 005a d2bb 605a 5dbe f710 dabe
00000330: 3ac2 11bf f87b 36bf 4fa8 1cbf a5d4 02bf
00000340: 604e a8be efe6 15be e66a 88be 38b0 8c3c
00000350: ed00 9a3e 3294 ea3e bc93 1d3f dcd2 c93e
00000360: 7efc 303e 7cb0 1fbd 5e6a 80be 5ffe e7be
00000370: 30c9 27bf 56e0 06bf f8ee cbbe 1e4c 23be
00000380: 688b a23d cab8 aabe 78c5 97bc 1ac0 973e
00000390: 2558 fb3e 1878 2f3f 85cd 043f e645 b43e
000003a0: 2082 0d3e 150f 9bbd 4a78 acbe 6816 19bf
000003b0: bb30 e2be a634 92be 5048 203c 2b39 9c3e
000003c0: ad06 cdbe 941d 5ebd 487f 953e 0c0e 063f
000003d0: 735c 413f 9cb1 243f c606 083f 3078 a13e
000003e0: 4e8b cb3d 6ce4 61be a063 0abf caa0 b6be
000003f0: a8f4 30be 2855 373e bee7 073f 305e 40bf
0.060565587 -0.12859076 -0.31774712 -0.43078575 -0.5438244 -0.42850995 -0.3131955 -0.13744523
0.038305044 0.27449113 0.5106772 0.4080441 0.305411 0.08983848 -0.12573405 -0.044994317
-0.14250721 -0.2400201 -0.29002646 -0.34003282 -0.24751961 -0.15500641 -0.037136674 0.08073305
0.22395934 0.36718562 0.30333942 0.23949325 0.10662311 -0.026247025 -0.15055422 -0.15642366
-0.16229308 -0.14926717 -0.13624124 -0.066529274 0.0031826943 0.06317188 0.12316106 0.17342755
0.22369403 0.19863476 0.17357549 0.12340774 0.07324 -0.25611413 -0.1703401 -0.084566064
-0.008507863 0.06755034 0.11446106 0.1613718 0.16348043 0.16558906 0.12289575 0.08020242
0.09393008 0.10765774 0.14019237 0.17272702 -0.36167404 -0.18425655 -0.006839052 0.13225144
0.27134192 0.2954514 0.3195609 0.263789 0.20801708 0.07236395 -0.06328918 -0.010774598
0.041739985 0.156977 0.27221403 -0.40334013 -0.17234744 0.058645252 0.22790855 0.39717185
0.3812471 0.36532235 0.26646668 0.16761097 -0.014175493 -0.19596195 -0.12183324 -0.047704518
0.11172907 0.2711627 -0.44500622 -0.16043833 0.12412956 0.32356566 0.5230018 0.4670428
0.41108382 0.26914436 0.12720487 -0.10071494 -0.32863474 -0.23289189 -0.13714902 0.06648115
0.27011132 -0.35888466 -0.09687811 0.16512844 0.32901847 0.49290854 0.3624493 0.23199004
0.07656029 -0.07886948 -0.25926965 -0.43966985 -0.35665843 -0.273647 -0.1028319 0.0679832
-0.2727631 -0.033317894 0.20612732 0.3344713 0.46281525 0.25785577 0.05289626 -0.11602378
-0.28494382 -0.4178244 -0.55070496 -0.48042497 -0.41014498 -0.27214494 -0.13414492 -0.18664153
0.030242331 0.24712619 0.3399241 0.43272197 0.15326224 -0.12619752 -0.30860782 -0.49101815
-0.5763791 -0.66174006 -0.60419154 -0.546643 -0.441458 -0.336273 -0.10051996 0.09380256
0.28812507 0.3453769 0.40262872 0.048668712 -0.3052913 -0.50119185 -0.6970925 -0.73493385
-0.77277523 -0.7279581 -0.683141 -0.61077106 -0.5384011 -0.11647977 0.09118886 0.2988575
0.36902446 0.43919143 0.096853636 -0.24548416 -0.44726765 -0.6490512 -0.71028054 -0.77150995
-0.7124919 -0.6534739 -0.5543735 -0.45527303 -0.13243958 0.08857517 0.30958992 0.39267203
0.47575414 0.14503856 -0.18567702 -0.39334345 -0.60100985 -0.6856272 -0.77024466 -0.6970258
-0.62380683 -0.4979759 -0.37214497 -0.19944008 0.05287452 0.30518913 0.42541695 0.5456448
0.2696127 -0.0064194202 -0.21616507 -0.42591068 -0.5693699 -0.7128291 -0.6119432 -0.5110572
-0.32872295 -0.14638875 -0.26644057 0.017173871 0.3007883 0.4581619 0.6155355 0.39418685
0.17283818 -0.038986668 -0.25081152 -0.45311257 -0.6554136 -0.5268606 -0.39830756 -0.15947005
0.07936746 -0.33344108 -0.018526778 0.2963875 0.49090686 0.68542624 0.518761 0.35209578
0.1381917 -0.07571236 -0.33685523 -0.59799814 -0.44177803 -0.28555793 0.009782866 0.30512366
-0.40044156 -0.054227427 0.2919867 0.52365184 0.7553169 0.6433351 0.53135335 0.31537008
0.0993868 -0.22059792 -0.54058266 -0.35669547 -0.17280829 0.17903578 0.53087986 -0.7514372
