testdata/dnn/layers/layer_concat_shared_input.npy (npy, 12416 bytes, 1 tensors)

array f4 [1, 256, 3, 4]
00000000: e8f7 8fbd 489e 233c 18c4 9abc afc4 953c
00000010: 8c6e debc af72 75bd 3311 e43c 0857 ad3d
00000020: 6a56 38bd cd37 4bbd 88c7 94bd 32ee e63c
00000030: 8724 72bd 0a4f ebbd 5e87 353e 8201 72bc
00000040: 1733 d2bd e9b8 41bd 9faf 06bd 47ca f23c
00000050: a3dc b5bc 08bf 1abe b049 e3bd 3487 33bd
00000060: 28de 0cbe c8b3 b2bd 405e 963d 429b 4cbc
00000070: 9296 f4bd add1 f2bd 4af3 65bc 3d5f b53d
00000080: e3f4 afbd 10d3 33be 9f5d 32be 14cc aabc
00000090: d0bd 5f3b ad33 173e 5325 4fbe 9cc2 3e3d
000000a0: 5221 c43d 604c 9e3a 6648 9c3d af7e 883d
000000b0: 7073 31bc a8a0 003e 66b7 6c3d 6e95 b53d
000000c0: 495c 03be 013a 91bc 34d2 0c3d f33e f13c
000000d0: f168 96bd e34e dcbd 87ab 1e3d cc04 1b3e
000000e0: ffb5 99bd 4409 01be 432b 19be 0cd6 113d
000000f0: 802b c53c 9cba 173e c27d 3ebe 9ae6 453d
00000100: cf65 d73d 9ca6 a23c 5435 9a3d 1889 5f3d
00000110: f2cd a93b e0fa 0d3e f670 9e3d ffa4 b23d
00000120: 2743 10be 4965 313f 22f0 58bf 08c2 973e
00000130: bde8 bc3e 9187 f5bd 765b e53e afae 123f
00000140: ec9f 01be d70c db3e 23f2 a03d b919 003f
00000150: 0007 9e3c c0eb 4dbe 0828 863e d790 98bd
00000160: 302d f2bd 65a6 903c 6970 efbd 8910 04be
00000170: 3bef da3c 9f86 16be 9eab 4bbd 442a 08be
00000180: 369d 84bd 9f0e 473d 8b9e 69bd cfa5 0f3d
00000190: e8be 1fba 3dd1 5fbd 321f 523d b382 db3d
000001a0: bb28 2cbd bba3 8bbc 4895 62bd 3898 5e3d
000001b0: ece2 61bd d9eb 0fbe b0bc 033e 14b5 67bd
000001c0: 693e e7bd 37c6 4abd c743 9dbd d9e7 43bd
000001d0: db7a 0cbd 06ac 14be 53d8 cbbd 883d b1bd
000001e0: 2cea 0c3d d334 883e 9e5f bebe 7be4 973d
000001f0: 7cf4 3e3e 3a52 d13c 101f 003e cf33 a63d
00000200: 08a4 70bb 772b 813e edec 0b3e 417e 173e
00000210: d7f5 1abd 0320 a63d 175f a3bd 2359 423d
00000220: 13f2 023d 90ac fbbc 465f 883d eb10 da3d
00000230: f0ac c4bc da23 d93c 4e3a 94bc aaf2 923d
00000240: 68ed 303e 225b 223e 4272 53be c089 553c
00000250: 60f6 3b3e b189 143e 5cb8 dc3c 948f f9bd
00000260: 4ddd c03d 48a8 8c3e 8adf 7b3e 07c1 293d
00000270: c9aa 4d3c 5b51 913e d382 b2be 4d60 d43d
00000280: ae65 3d3e e212 273c 4d59 223e e895 193e
00000290: 3b18 15bc 27b0 703e 26d2 e03d 431b 393e
000002a0: 2ae8 05be de00 28bc ec2c b7bc f63a 6b3c
000002b0: 235c 8abd f072 e7bd 785c e03c 91af fe3d
000002c0: 413e b1bd c07b debd c8ce 0fbe cc96 da3c
000002d0: ae49 a53d 88b3 50bc 0ac1 2f3d 3c6b 62bc
000002e0: 6cc8 f03c 59b7 8f3d 3af4 d3bc 0b78 abbd
000002f0: bb10 643d 4238 4e3d 1204 a23d 2363 debc
00000300: 6c79 19bd c078 99bd bd86 a13d 9f3e c6bc
00000310: 6647 84bd ae1b 05bd b09f 0dbd 7d17 0bbc
00000320: b770 adbc 1480 b2bd 4dfe 82bd 99e7 24bd
00000330: 7f19 1d3d 7878 283e 23b4 51be 41f5 523d
00000340: f06d fa3d 6816 033d 1735 a43d 54c0 443d
00000350: 51d9 583c a231 273e c169 c93d 536e bf3d
00000360: b711 4ebd 9d3c 1dbd 7ca2 94bc 8c2c e2bc
00000370: e4d3 38bd 96bb 40bd bc04 dfbc 3034 1dbc
00000380: f88f 2abd 2b28 5ebd da40 63bd 0c80 e6bc
00000390: d9a8 c9bd 8c58 883d 8aa2 03be a04e fc3c
000003a0: a49e 45bb fb6d b1bd 7a13 663d cef6 f93d
000003b0: 8ed9 96bd 6607 8dbc 99e3 9cbd 03e5 7e3d
000003c0: ee71 8dbd de7a 553c 006b 093d aae4 273d
000003d0: 89c5 e0bc 4e1b 61bd c648 473d ca80 003e
000003e0: a6e6 07bd 6abf 7ebd 2784 a6bd d2ae 403d
000003f0: a087 52be 5f83 43be 124f 5f3e 1a01 e7bc
-0.07029706 0.009986468 -0.018892333 0.018282263 -0.027152322 -0.059923824 0.027840232 0.084638655
-0.045004286 -0.049613763 -0.0726462 0.028189752 -0.059116866 -0.11489685 0.1772742 -0.014770867
-0.10263651 -0.047295485 -0.03288233 0.029637469 -0.022199934 -0.15111935 -0.11098039 -0.04383011
-0.13756621 -0.08725697 0.073421955 -0.012488188 -0.119427815 -0.11856399 -0.014035055 0.08856056
-0.0859163 -0.17560983 -0.17418526 -0.020849265 0.0034140237 0.14765806 -0.20229082 0.046572313
0.09576668 0.0012077205 0.076309964 0.06664788 -0.010830745 0.12561285 0.05779209 0.08866392
-0.12828173 -0.017727854 0.034380153 0.029448962 -0.07344235 -0.10757234 0.0387378 0.15138549
-0.07505416 -0.12601191 -0.1495791 0.03560452 0.024068594 0.1481728 -0.1860266 0.048315622
0.10517465 0.019854836 0.07529703 0.054574102 0.0051820213 0.13865232 0.07736389 0.08722877
-0.14088117 0.69295174 -0.84741414 0.29640222 0.36896315 -0.11988748 0.44796342 0.57297796
-0.12658662 0.42783234 0.07858684 0.5003925 0.019290447 -0.20109463 0.26202416 -0.07449501
-0.11825025 0.017657468 -0.116913624 -0.12896933 0.026725402 -0.14699791 -0.049724214 -0.13297373
-0.06475298 0.048597928 -0.057035964 0.035070237 -0.0006093816 -0.054642905 0.05129928 0.10718288
-0.04203103 -0.017045846 -0.055318147 0.054344386 -0.05514805 -0.14054812 0.12864947 -0.056569174
-0.11291201 -0.04950544 -0.07678943 -0.04782853 -0.03429685 -0.14518747 -0.0995337 -0.08654314
0.03440301 0.26602802 -0.37182325 0.07416626 0.18647951 0.025551904 0.1251185 0.081153505
-0.0036718864 0.25228474 0.13664599 0.14794256 -0.037832107 0.081115745 -0.07977121 0.04744829
0.03196914 -0.030721933 0.06658797 0.10647758 -0.024008244 0.026506353 -0.018094208 0.07175191
0.17278063 0.15855077 -0.20649055 0.01303333 0.18355703 0.1450565 0.026943378 -0.121855885
0.0941721 0.27472138 0.24596992 0.04144385 0.012552925 0.28382382 -0.34865436 0.103699304
0.18495819 0.010197373 0.15854378 0.14998591 -0.009100015 0.23504697 0.10977583 0.18076806
-0.13076845 -0.010254113 -0.022360288 0.014357319 -0.06755855 -0.113012195 0.027387843 0.124358304
-0.08654452 -0.10863447 -0.14043725 0.026683234 0.08070694 -0.012738116 0.042908706 -0.013819512
0.029392444 0.07017393 -0.025873292 -0.08372506 0.055680018 0.05034662 0.079109326 -0.027146881
-0.037469313 -0.07493734 0.078870274 -0.024199782 -0.06458931 -0.0324971 -0.034576118 -0.008489487
-0.02117191 -0.08715835 -0.0639616 -0.04025993 0.038354393 0.16452205 -0.20478873 0.051503424
0.12228 0.03200379 0.080179386 0.04803498 0.013235406 0.16327527 0.09834624 0.093472145
-0.050309863 -0.038387883 -0.018143885 -0.027609132 -0.04512395 -0.047053896 -0.027223937 -0.009594962
-0.041641206 -0.054237526 -0.05548177 -0.02813723 -0.09846658 0.06657514 -0.12854972 0.03079921
-0.0030154372 -0.08663555 0.056170918 0.122052774 -0.07365714 -0.017215442 -0.07660598 0.06223012
-0.06906496 0.013029782 0.03354931 0.040989555 -0.027437942 -0.05495768 0.048653387 0.12549129
-0.033178948 -0.062194265 -0.08130675 0.04704172 -0.2055955 -0.19093083 0.21807507 -0.028198767
