testdata/dnn/layers/layer_interp.input.npy (npy, 560 bytes, 1 tensors)

array f4 [2, 3, 4, 5]
00000000: 9f13 783d b3fa 19bf 59a1 4abe 15f7 203f
00000010: 6dc0 00be a39e 00bf 6dd4 0b3f 2631 063f
00000020: 86d1 c4be 414a cf3e 7c8f 30bd ee99 153f
00000030: 5f0c 54bf b491 59bf c553 2cbf ad06 cdbe
00000040: dfb1 4f3f e2b7 d63e e258 33bf bee7 073f
00000050: 305e 40bf 4917 7ebf e9ff d23d fb13 7f3f
00000060: 9598 2ebf 127a 2dbf 7372 6cbf 04d6 17be
00000070: a437 313f 1874 463f 3cef f0be d9b7 eabe
00000080: e4c3 673f 9e55 b33e aed4 1e3f f8cf 21bf
00000090: 70a3 4fbf 14be 213f 43d9 483d c30a 74be
000000a0: 173c 34be f254 fabe 65c9 633f fcdc 4c3f
000000b0: e579 acbd c9bf 2e3f 01f9 e0be b0a0 6abe
000000c0: f902 c5bd d438 403f 2661 2ebf 96de 983e
000000d0: 0eaa 18be ec44 b83e f514 9abe 8d44 4e3e
000000e0: 7177 e3be 786a 993e f690 03be 4843 133f
000000f0: 12cf c8be 6d47 58bf 4e28 8b3e a15d ab3e
00000100: 19b3 fd3e e90d b2be 4289 80be 0480 a63d
00000110: 1b02 6ebf 78f3 bebe f3c9 213f 65f2 ad3e
00000120: 0711 963e ab5f 50bf 401f 1d3f a905 233f
00000130: 3f99 3d3f 52e3 77bf 11be 243f 1406 e8be
00000140: c0b2 f83e 61b5 413f c1b9 fcbe 1f33 14bf
00000150: d41a 72bd 0f43 21bf 286b 503e 1aaa ce3d
00000160: d298 413d 367b 13bf a2ca 0e3f 8627 7fbf
00000170: 8fbd 2fbe bf6c 0e3f 9acb aabe 21f4 183f
00000180: 52e0 493f b551 323f 5ef3 5e3f 6453 88bd
00000190: 225a 303f ad9d 6cbf 3626 e63e 3a34 ee3d
000001a0: 43e7 373f fe04 39bf b89a b83d 2a73 2a3f
000001b0: 2124 27bf 4e07 4bbf 06b9 edbe c9a3 3ebf
000001c0: 2324 0dbf 665c 5d3d 079c 813e 2945 8fbe
000001d0: 92d4 7dbd 9ad9 703e ca69 7a3f 16e5 4abf
0.060565587 -0.6014816 -0.19788112 0.6287702 -0.12573405 -0.5024206 0.5462101 0.52418745
-0.38441104 0.4048634 -0.043105587 0.58438003 -0.82831377 -0.8498795 -0.6731532 -0.40044156
0.81130785 0.41937166 -0.700575 0.53087986 -0.7514372 -0.9925428 0.10302717 0.9963986
-0.6820157 -0.6776439 -0.92362136 -0.14827734 0.69225526 0.77520895 -0.4705752 -0.4584339
0.9053328 0.35026258 0.62043273 -0.6320796 -0.8110876 0.6318066 0.049035322 -0.2383223
-0.17601047 -0.48892933 0.8897918 0.80024695 -0.08421687 0.6826139 -0.43939975 -0.2291286
-0.096197076 0.7508671 -0.68116987 0.2985732 -0.1490862 0.35990083 -0.30094114 0.20143338
-0.44427064 0.29964042 -0.12848267 0.5752454 -0.39220482 -0.8448399 0.27179188 0.3346987
0.49550703 -0.34776238 -0.2510472 0.08129886 -0.9297196 -0.37295127 0.63198775 0.33973995
0.29309866 -0.8139598 0.6137581 0.6368051 0.7406196 -0.9683124 0.6435252 -0.45317137
0.48573875 0.7566739 -0.4936047 -0.57890505 -0.059107617 -0.6299295 0.20353377 0.10091038
0.04726488 -0.5760988 0.55777943 -0.9966968 -0.17162155 0.55634683 -0.3335846 0.5974751
0.7885791 0.69655925 0.870901 -0.066565305 0.6888753 -0.92428094 0.44951028 0.11631055
0.7183725 -0.7227324 0.09013885 0.66581976 -0.65289503 -0.7930802 -0.46430224 -0.74468666
-0.55133265 0.054043196 0.25314352 -0.27982453 -0.0619703 0.23520508 0.9781767 -0.7925581
