testdata/dnn/layers/layer_concat_optim.npy (npy, 416 bytes, 1 tensors)

array f4 [1, 6, 3, 4]
00000000: 8e20 1dbf 9bba 2cbf 5e25 1ebf e3c8 303e
00000010: 481a 443d 4e0e 443e 81f7 0b3e 2cba e8be
00000020: 7088 353e 00dd 803e c74c b33f f75b 163e
00000030: 68d0 4abf 04bb 64bf a681 4cbf 204e 073f
00000040: 12ce 19bf a80d f23e c08e 163c d0df 6b3e
00000050: a494 053f 216f 873e 10c5 1dbf 0245 f13e
00000060: 6194 32bf 6567 3fbf c36a 33bf 0e4b 2fbd
00000070: dca7 20be d672 08bd f47d a8bd 0d69 cb3f
00000080: 00ef 41bd fc50 d73c 697e 723f 0537 94bd
00000090: 7cc6 343f c60b 4c3f 804b 363f 83ca f3be
000000a0: 001c f83d b732 d8be 6444 5dbe 9490 943e
000000b0: c88d f2be 648f 50be 3215 65bf 304e dbbe
000000c0: da84 b4be f23e 9fbe 3c21 b3be d838 65bf
000000d0: 1f4e 02bf 0c92 5dbf 403d 38bf 0467 18bf
000000e0: 4e52 64bf 1de7 40bf 5a5e 32bf 2102 5fbf
000000f0: 4951 a43f 8cfa b83f adaa a53f 816b 50bf
00000100: acc9 e53e 2134 57bf 0200 82be 409e 11c0
00000110: 51ba 4fbf 05f3 76bf 62d7 58bf 1c16 3bbf
-0.613778 -0.6747224 -0.6177577 0.17264132 0.047876626 0.19146082 0.13668634 -0.45454538
0.17727828 0.2516861 1.4007806 0.1468352 -0.7922425 -0.89347863 -0.7988533 0.52853584
-0.60080063 0.47276044 0.009189308 0.23034596 0.5217993 0.26451972 -0.6162882 0.4712296
-0.6975766 -0.7476714 -0.7008478 -0.042796187 -0.15689033 -0.03331264 -0.08227149 1.5891434
-0.04734707 0.026283734 0.94724137 -0.07237057 0.70615363 0.79705465 0.71208954 -0.47615442
0.121147156 -0.42226192 -0.2160812 0.29016554 -0.47373796 -0.20367199 -0.89485466 -0.4283309
-0.35257608 -0.3110271 -0.34986293 -0.8953986 -0.50900453 -0.86550975 -0.7196846 -0.5953219
-0.89188087 -0.7535265 -0.6967522 -0.87112623 1.2837306 1.4451461 1.2942711 -0.8141404
0.44880426 -0.8406392 -0.2539063 -2.2752838 -0.8114367 -0.9646457 -0.8470365 -0.7308061
