testdata/dnn/layers/layer_prelu_fc.input.npy (npy, 608 bytes, 1 tensors)

array f4 [2, 3, 4, 5]
1.9022774 -3.6781964 5.4183083 -0.61362934 -0.7833188 6.461419 2.9865417 -8.963665
2.4247994 0.9685374 -6.6031713 3.6103108 -2.2885556 1.3765348 3.9956527 -1.783031
-9.214026 -2.0855334 -2.22733 6.9865155 3.2241323 0.66006714 -6.2725396 -8.541769
2.796452 -0.3734174 -6.569768 -2.0791912 -6.9679565 -6.1105776 -9.621436 -7.7257185
0.6912369 2.3944092 0.45694572 -0.41803223 1.7127758 -5.483236 -8.661633 -5.520094
3.223251 -6.5700173 -7.404189 5.8366656 -3.2283173 -2.5899258 -7.0342073 -1.1543248
-2.2943852 6.9078355 -5.22266 -6.342186 1.2351681 4.460748 -1.1111718 3.4983516
1.8560536 0.77004665 0.5403861 -0.7986407 -10.031938 1.676446 -12.234936 2.6147616
1.0714588 0.39968726 -1.5434433 -2.186152 -3.5733085 2.1269293 -6.033492 2.9786503
4.202057 -0.57134426 -2.6131635 6.3967514 -2.2498486 6.100886 -0.95373106 -2.4974716
-0.70238423 -0.2582829 2.362928 7.1216483 0.94297355 0.6761011 3.2929251 -4.287588
4.4492164 11.864687 -7.0820117 -4.079481 -0.64227456 -9.887968 5.2745576 -0.12555867
4.684889 -0.8551787 -0.2271468 -1.3421942 -2.700879 -0.21981475 -2.1004362 11.043388
10.856226 6.820228 3.5305648 -2.9104612 11.090837 -4.4770336 -1.4618492 -11.432457
-4.8300433 -3.7165358 0.7889903 -2.915124 -7.5118346 -7.509943 4.2829227 4.8227544
00000000: d37d f33f 9267 6bc0 c862 ad40 d016 1dbf
00000010: 9587 48bf f2c3 ce40 8023 3f40 2c6b 0fc1
00000020: ea2f 1b40 11f2 773f 2e4d d3c0 550f 6740
00000030: b277 12c0 4b32 b03f c6b8 7f40 5c3a e4bf
00000040: a76c 13c1 6179 05c0 938c 0ec0 8991 df40
00000050: 2f58 4e40 29fa 283f a5b8 c8c0 16ab 08c1
00000060: 12f9 3240 9130 bfbe 8a3b d2c0 7811 05c0
00000070: 80f9 dec0 da89 c3c0 67f1 19c1 1639 f7c0
00000080: e7f4 303f 003e 1940 caf4 e93e 5208 d6be
00000090: 3d3c db3f ab76 afc0 0c96 0ac1 9ca4 b0c0
000000a0: bf49 4e40 953d d2c0 1eef ecc0 f7c5 ba40
000000b0: c09c 4ec0 58c1 25c0 3a18 e1c0 eac0 93bf
000000c0: 35d7 12c0 fd0c dd40 0820 a7c0 30f3 cac0
000000d0: fd19 9e3f 73be 8e40 e13a 8ebf fee4 5f40
000000e0: 2a93 ed3f c721 453f be56 0a3f b873 4cbf
000000f0: d182 20c1 c895 d63f 4cc2 43c1 4158 2740
00000100: 9025 893f cfa3 cc3e 8d8f c5bf eae9 0bc0
00000110: 16b1 64c0 9c1f 0840 5e12 c1c0 35a2 3e40
00000120: 4077 8640 9e43 12bf 123e 27c0 30b2 cc40
00000130: 85fd 0fc0 753a c340 b827 74bf 93d6 1fc0
00000140: 74cf 33bf a83d 84be 363a 1740 8be4 e340
00000150: b766 713f f614 2d3f 49bf 5240 ec33 89c0
00000160: fb5f 8e40 c2d5 3d41 d79f e2c0 1c8b 82c0
00000170: 1b6c 24bf 1e35 1ec1 2dc9 a840 7492 00be
00000180: 9cea 9540 feec 5abf 2c99 68be 05cd abbf
00000190: 34db 2cc0 1e17 61be 8c6d 06c0 b8b1 3041
000001a0: 1ab3 2d41 4f3f da40 c6f4 6140 ff44 3ac0
000001b0: 1174 3141 dc43 8fc0 e01d bbbf 58eb 36c1
000001c0: b78f 9ac0 b9db 6dc0 45fb 493f 6491 3ac0
000001d0: f360 f0c0 7451 f0c0 b40d 8940 0154 9a40
