testdata/dnn/layers/lstm.prototxt.w_2.npy (npy, 4704 bytes, 1 tensors)

array f4 [68, 17]
000000 af 05 a3 be 71 33 37 3f 2d 8d 14 3f da af 3c 3e
       -0.31840274 0.7156287 0.5802792 0.18426457
000010 43 4f 7e 3f 6e 21 31 be 62 9c 10 bf 49 79 18 be
       0.99339694 -0.17297909 -0.5648862 -0.14890017
000020 7d 47 07 3f fc e3 5d 3f fc 30 9f 3e d6 78 29 3f
       0.5284346 0.86676 0.3109206 0.66200006
000030 bf 7c 1c 3f 1d 60 72 be 85 da 04 bf f0 82 25 3f
       0.6112785 -0.23669477 -0.51895934 0.6465292
000040 a1 96 2a bf f8 6c cb 3e a1 3c 2a 3f 71 a5 a6 bc
       -0.6663609 0.39731574 0.6649876 -0.02034256
000050 53 3d 78 bf f3 21 e2 be 9d 4e 4d 3f 06 89 33 bf
       -0.96968573 -0.44166526 0.8019808 -0.70130956
000060 5c 16 01 3f 98 26 35 3f 96 db 15 be 5b d4 ee 3e
       0.5042474 0.70762014 -0.14634547 0.4664639
000070 76 2b e4 be f5 4b 33 bf ed 4d cf 3e 78 a1 93 3e
       -0.44564408 -0.70037776 0.4048914 0.28834128
000080 19 0f 0a bf fa dc c1 be e9 1a 47 3d 41 11 2c 3c
       -0.5392929 -0.37863904 0.048609648 0.0105021605
000090 6e 3c 7d 3f b9 ea 6d bf 42 7f 78 3d 1a 37 5c bf
       0.98920333 -0.92936283 0.060668238 -0.8602158
0000a0 20 b3 7c 3f 60 0d 54 bf 7d 13 3c 3e bc 05 ab be
       0.98710823 -0.8283291 0.18366809 -0.33402812
0000b0 37 b5 fd 3e 13 33 75 3f 67 4f 01 3f 53 4e 51 bf
       0.49552318 0.9578106 0.50511783 -0.8176014
0000c0 f1 ba 98 be 69 47 2d 3f 12 1e c2 be 38 32 b4 bc
       -0.29830125 0.6768709 -0.37913567 -0.021996602
0000d0 a3 03 b9 3e e7 0f e4 3e e3 c2 da 3d 0d 09 3b be
       0.36135587 0.44543383 0.10681703 -0.18265171
0000e0 77 81 82 be 71 14 5b 3e b2 c3 d7 bd e7 fa 98 be
       -0.254894 0.21394517 -0.10535373 -0.29878923
0000f0 55 f1 62 3f bb 41 e1 be 33 50 8b 3e 29 ed 1e bf
       0.88649493 -0.4399546 0.27209625 -0.6208063
000100 a9 1e e9 be c8 7d 38 3f 44 e2 62 bf 81 90 64 bf
       -0.45531204 0.72066927 -0.88626504 -0.89282995
000110 13 e7 30 3e 24 3e 86 3e de 04 43 be 61 dd 0a bf
       0.17275648 0.26219285 -0.19044825 -0.5424405
000120 ea fd 4a bf 90 7d 4c bf bb c1 90 be d8 14 5b bf
       -0.7929369 -0.79879093 -0.28272805 -0.8557868
000130 98 83 1f bf f4 f1 d4 3e 6a 26 51 bf 3f a8 ca be
       -0.6231017 0.41590846 -0.8169924 -0.39581487
000140 04 1a 95 3d bb 19 00 bf 32 4b 3b bf 25 bb 92 3d
       0.07280353 -0.5003926 -0.73161614 0.07164601
000150 46 37 7f bf 62 72 08 3f ec 22 76 3e 20 92 0c 3f
       -0.99693716 0.53299534 0.24036759 0.5491047
000160 58 4c 2f be 28 e3 70 bf de 47 17 be a1 8f d9 be
       -0.17118967 -0.9409661 -0.14773509 -0.42492393
000170 c2 39 76 3e d8 70 ee be 8d 57 24 3f 4b c3 24 be
       0.2404547 -0.46570468 0.6419609 -0.16090123
000180 00 21 54 bc 45 6e df 3e 4d 04 f4 3e 14 fe 35 3f
       -0.012947321 0.43638816 0.4765953 0.7109082
000190 04 fb 73 3f de 6d 91 be 5e e2 32 3e 7a 32 b1 bd
       0.95304894 -0.28404135 0.17469165 -0.08652206
0001a0 ca aa 12 3e 89 a4 44 bd 95 8f 24 3e 79 d0 36 bf
       0.14322963 -0.048008475 0.16070397 -0.71411854
0001b0 20 fc 75 be 00 0d 1e 3f f4 32 3a bb 0c b1 06 3c
       -0.2402196 0.61738586 -0.0028411718 0.008220922
0001c0 f6 e8 e1 ba 30 34 e3 be 3e a2 ce 3e aa 6a bb be
       -0.0017235565 -0.44375753 0.40358156 -0.36604816
0001d0 98 8e 53 bf 12 fd 7c bf 42 c6 76 3f 92 fd 2c 3f
       -0.82639456 -0.98823655 0.9639627 0.6757442
0001e0 1f c0 6b be 72 f9 1e bf e8 d3 15 3f ab 3a fa be
       -0.23022507 -0.62099373 0.5852647 -0.48872885
0001f0 4a 99 3e be 03 7d 0b bf c3 08 aa bd ea 7d 79 3e
       -0.18613163 -0.5448763 -0.083024524 0.24364439
000200 6c 57 a1 3e cd be 02 3f 21 d7 18 be 18 15 26 bf
       0.3151201 0.5107239 -0.14925815 -0.64875937
000210 e4 93 06 be 27 9c 37 bf bb 47 29 3f 41 db 5d bf
       -0.13142353 -0.71722645 0.66125077 -0.8666268
000220 c5 81 40 bd e8 f0 1c bf 65 32 54 3f 8e d1 c8 3d
       -0.046998758 -0.61305094 0.82889396 0.098055944
000230 fa 8a 9d be 83 cb 05 3f 49 0a 3e 3f 9f e3 43 3f
       -0.30770093 0.5226366 0.74234444 0.765192
000240 07 5f 6a 3f f1 12 24 bf 0f 8f 24 3f fe b9 4a 3f
       0.9155125 -0.640914 0.6428079 0.7919005
000250 78 69 80 3e 45 4e b5 3e 63 72 57 bf 5c 62 93 3d
       0.25080466 0.35411277 -0.84158915 0.07196495
000260 0d 76 d1 bb 56 bc 0b 3d ed 0e ab 3d 15 51 85 3d
       -0.0063922466 0.034115158 0.08352456 0.06509606
000270 f4 71 88 3e 4c de 71 3e 92 97 5f be 15 dc 09 bf
       0.2664944 0.23619956 -0.21835163 -0.53851444
000280 25 3e 64 bf 3c 3f 7f bf 83 be 0c 3f 51 51 e5 bd
       -0.89157325 -0.99705863 0.549782 -0.111971505
000290 a0 ba 59 bf d4 35 4d bf 1f 91 d9 be 1e f0 3f 3f
       -0.8505039 -0.8016026 -0.4249353 0.74975765
0002a0 ba 1a 3b bf 8b dc ea be 0c e8 55 3e dd 06 86 3e
       -0.73087656 -0.45871386 0.208893 0.2617711
0002b0 ae 16 bf be a4 7e 5d bf 4f 3a 2b 3f 8e bb 41 bf
       -0.3732199 -0.86521363 0.66885847 -0.7567681
0002c0 ca 42 11 be 86 74 82 3d 85 54 44 bf d8 c4 3a 3f
       -0.14185634 0.06369881 -0.76691467 0.7295661
0002d0 d0 9a a3 be c3 35 59 3e cc 57 cd be 9f 5f ea bd
       -0.3195405 0.21211915 -0.40106046 -0.114440195
0002e0 3a f4 45 3f cc 02 86 3e 64 51 2a bf a7 60 07 3d
       0.77325785 0.2617401 -0.6653044 0.03305116
0002f0 d7 52 6b 3e 22 1d 53 bf 74 b6 fb bc db 19 36 bf
       0.2298082 -0.8246633 -0.030726649 -0.711332
000300 30 e8 72 3c 34 00 85 be 42 19 5f 3f 7d 7b d0 3e
       0.014825866 -0.25976717 0.87147915 0.40719214
000310 4f 6a 75 be ca 2a d7 bd df 3a 7d 3e 28 31 79 3f
       -0.23966335 -0.10506208 0.24729489 0.9734063
000320 e4 de 53 bf 53 ef 01 bf 66 43 44 3f ae f3 7f 3f
       -0.8276198 -0.50755805 0.7666534 0.999812
000330 d3 f6 3b 3f b2 a2 c3 3e bc ae 24 3f 9a d4 7f 3d
       0.734235 0.38210064 0.64329123 0.062458612
000340 0a 52 e8 bd ac 9c 45 bf 9e c6 5b be 60 a6 a9 3e
       -0.11343773 -0.7719219 -0.21462485 0.33134747
000350 6b 32 4e 3f 3c d1 c4 bc fa a7 66 be 08 2b 74 3f
       0.8054568 -0.024025552 -0.22525015 0.9537816
000360 dc 9b 46 bd 27 a6 fd be 96 df b5 3e 46 5b 8a 3e
       -0.048488483 -0.49540827 0.35522145 0.2702276
000370 86 c5 10 bc bb 26 5f 3f 55 47 67 3f 55 4c 17 3f
       -0.008836156 0.87168473 0.9034322 0.5910085
000380 53 17 d0 3d a9 f9 2c bf ef cd 5e bf 56 44 5d be
       0.10160699 -0.6756845 -0.8703298 -0.216081
000390 72 a6 49 3f 0c 97 63 3f c5 c2 e7 bd 14 db c3 3e
       0.787696 0.88902354 -0.11316446 0.3825308
0003a0 71 6f e9 be c6 ba 2e 3d 96 18 cd be 6e 4f a0 be
       -0.45592836 0.04265859 -0.4005782 -0.313106
0003b0 9b 66 6b bd 56 2d 63 3f 95 89 66 3f f9 4d 98 3e
       -0.0574709 0.8874105 0.90053684 0.29746988
0003c0 3c 98 39 3f 40 36 2c bf 67 12 de be 47 46 be be
       0.72497916 -0.6727028 -0.43373415 -0.37162992
0003d0 c0 7a e6 be 4c 4c 16 bf 21 9f 56 bf 8c 24 76 3f
       -0.45015526 -0.5871017 -0.8383656 0.96149516
0003e0 a3 1a 0b 3f a4 16 0b bf 0b 03 22 bf 34 04 32 3f
       0.5433752 -0.5433142 -0.63285893 0.69537663
0003f0 f0 14 ff 3e 06 5e a6 3e 37 38 5f 3f 49 55 3c be
       0.49820662 0.3249361 0.8719515 -0.18391909
