testdata/dnn/layers/lstm.prototxt.w_0.npy (npy, 362384 bytes, 1 tensors)

array f4 [68, 1332]
0	0x3f0c8998	0.5489745
1	0x3f1f9906	0.6234287
2	0x3eae3f18	0.34032512
3	0x3dcc0e44	0.099636585
4	0xbf02387d	-0.50867444
5	0x3f7d2f5c	0.9890039
6	0xbf633e4d	-0.8876694
7	0x3f18315f	0.59450334
8	0x3f67364b	0.9031722
9	0xbf17f123	-0.5935232
10	0x3dd3a1c6	0.1033359
11	0x3e11c51d	0.14235349
12	0x3f2f6ea4	0.685282
13	0xbda79505	-0.0818272
14	0x3e2a2e34	0.16619188
15	0xbed53c0e	-0.4164738
16	0xbe61ef03	-0.22063832
17	0xbdc86fc9	-0.09786946
18	0xbf2b851e	-0.66999996
19	0xbf293df6	-0.6611017
20	0x3f25372d	0.64537317
21	0x3f57e382	0.84331524
22	0xbf7ca6f6	-0.9869226
23	0x3ebc54e0	0.36783504
24	0x3c1fa6e5	0.009744381
25	0xbf1024f2	-0.56306374
26	0xbf0e1890	-0.5550623
27	0x3f2ec1f5	0.68264705
28	0x3ecac147	0.39600584
29	0xbf3876ea	-0.7205645
30	0xbee1fd9f	-0.4413881
31	0x3f282867	0.6568665
32	0xbf6b962e	-0.9202603
33	0xbd768ed1	-0.060194794
34	0x3ea7783e	0.32708925
35	0x3de1b2f9	0.110204645
36	0xbc91dc83	-0.017805343
37	0xbf42af5b	-0.7604882
38	0xbee9f001	-0.4569092
39	0x3f30b0cf	0.6901979
40	0xbe771fb3	-0.24133186
41	0xbf0ea7f7	-0.55725044
42	0x3f27a263	0.6548216
43	0x3eae7d55	0.34079996
44	0xbf489a5b	-0.7836053
45	0xbe4fc201	-0.2028885
46	0x3eb25ebb	0.348379
47	0x3daf8f48	0.085722506
48	0x3e70f82a	0.23532167
49	0x3e077d47	0.13231383
50	0xbe765ac0	-0.24058056
51	0xbd22c4fa	-0.039738633
52	0xbeff192d	-0.49823895
53	0xbf0916a3	-0.53550166
54	0xbe512abe	-0.20426461
55	0x3f4f072d	0.80870324
56	0x3ceb6b58	0.028737709
57	0xbe9e39bc	-0.30903423
58	0x3f28dcbc	0.65961814
59	0x3d01b806	0.03166964
60	0x3f1818ed	0.59413034
61	0xbf759e84	-0.95945
62	0x3f661c01	0.8988648
63	0xbf75cef7	-0.9601893
64	0x3f2c7126	0.6736015
65	0xbd572633	-0.052526664
66	0x3e90fc11	0.2831731
67	0xbf41ad2e	-0.75654876
68	0x3f0c87a3	0.54894465
69	0x3f24109a	0.6408783
70	0x3f673fae	0.9033154
71	0xbf69f8f4	-0.913955
72	0xbebd026e	-0.36915916
73	0x3f44da1a	0.76895297
74	0xbe242386	-0.16029176
75	0x3e6b2833	0.22964554
76	0xbe3e6693	-0.18593816
77	0xbf00c663	-0.50302714
78	0x3f5a91b1	0.8537856
79	0x3f1da5ed	0.6158131
80	0x3d2c9029	0.04212967
81	0x3d8b5978	0.06804174
82	0xbecb7bd7	-0.3974292
83	0xbf420af6	-0.75797975
84	0x3e591cb9	0.21202363
85	0xbd05c0dc	-0.03265463
86	0x3f55c106	0.83497655
87	0x3e24a996	0.16080317
88	0x3f7c9418	0.98663473
89	0xbe57730e	-0.21039984
90	0x3f478012	0.77929795
91	0xbf7d810b	-0.9902503
92	0x3f217588	0.63069963
93	0x3f24dca3	0.64399165
94	0xbe0bd435	-0.1365517
95	0x3f34913c	0.7053411
96	0xbf35a9e2	-0.70962346
97	0xbe398c28	-0.18119872
98	0x3f6af5ff	0.9178161
99	0x3f65cea9	0.89768463
100	0x3f51b5d9	0.819181
101	0x3e2bef1c	0.16790432
102	0xbf5f0799	-0.8712097
103	0x3f27fbe3	0.65618724
104	0xbf52b894	-0.82312894
105	0xbf109ccb	-0.5648925
106	0x3eb381c3	0.35059938
107	0x3f613c73	0.87982863
108	0x3f661a61	0.89884
109	0x3ef086fc	0.46977985
110	0x3f538a48	0.82632875
111	0x3ea5f0cf	0.32410285
112	0x3ee4dc56	0.44699353
113	0x3f12d6a1	0.5735875
114	0x3f423009	0.75854546
115	0x3e31e5d3	0.17372827
116	0xbeb8fc7c	-0.3613013
117	0x3f0b9fcd	0.5454071
118	0xbf7916cd	-0.97300416
119	0x3e28afb2	0.16473272
120	0xbf3635e0	-0.71175957
121	0x3ef493f2	0.47769123
122	0xbed38318	-0.41310954
123	0xbf01c6a7	-0.50693744
124	0xbf4799e3	-0.7796919
125	0x3ed88220	0.42286777
126	0x3da826cc	0.08210525
127	0x3f46b729	0.7762323
128	0x3f599366	0.8499054
129	0x3f261106	0.64869726
130	0xbef4b4ba	-0.47794133
131	0xbf57616d	-0.84133035
132	0xbd63c4f5	-0.055607755
133	0x3f7e07a8	0.9923043
134	0x3ef11bd2	0.47091538
135	0x3e021eff	0.12707137
136	0x3d6a7cef	0.057248052
137	0x3e5e42a2	0.21705106
138	0xbf3f9be9	-0.74847275
139	0x3e6844a2	0.22682431
140	0x3e7498d8	0.2388643
141	0x3ec5b692	0.38615853
142	0x3e403577	0.18770395
143	0xbf07ac9b	-0.5299775
144	0x3d87999a	0.06621094
145	0x3f0970df	0.5368785
146	0x3f60315f	0.87575334
147	0x3da6efe9	0.08151228
148	0xbe1f9f1b	-0.15588038
149	0xbef0483b	-0.46930107
150	0xbea2f7c9	-0.3182967
151	0xbec74e8a	-0.38927108
152	0x3f61ef01	0.88255316
153	0xbf1fbd99	-0.6239868
154	0xbf01784f	-0.505742
155	0x3f672670	0.90293026
156	0x3e88c27a	0.26710874
157	0xbdcfb615	-0.10142151
158	0x3f289cd3	0.65864295
159	0x3e8d6ed5	0.2762362
160	0xbe615b55	-0.22007497
161	0xbdcd597e	-0.10026835
162	0x3f50482a	0.81360114
163	0x3e9073cc	0.28213346
164	0x3cf39c3d	0.029737586
165	0xbecc198b	-0.39863238
166	0xbe29bcc8	-0.1657592
167	0xbeb79d83	-0.3586236
168	0xbf6b2c88	-0.91864824
169	0x3f5b7fa0	0.85741615
170	0xbeb8ced0	-0.36095285
171	0x3f0ec06a	0.5576235
172	0x3e3747ab	0.17898433
173	0x3f6974a4	0.91193604
174	0x3f4c78e9	0.79871994
175	0xbf1fc515	-0.624101
176	0x3ebdccf9	0.37070444
177	0x3f05baf0	0.5223837
178	0x3ee135ff	0.43986508
179	0x3dd247ac	0.102675766
180	0xbe4bb0ac	-0.19891614
181	0x3f0e4b42	0.55583584
182	0xbf1f0ba7	-0.62127155
183	0xbec2a253	-0.3801447
184	0xbdd730af	-0.105073325
185	0x3ef9648f	0.48709533
186	0x3f3ea7ee	0.7447499
187	0x3f3e19a2	0.7425786
188	0x3f47f4d7	0.7810797
189	0xbf40efb6	-0.7536577
190	0x3da6a767	0.08137398
191	0xbf1f23c8	-0.6216397
192	0x3f3e4f2d	0.7433956
193	0xbf7b20b2	-0.98096764
194	0x3e6dd384	0.23225218
195	0xbecca12c	-0.39966714
196	0x3f76e53f	0.9644355
197	0xbf2d8d6f	-0.67793936
198	0x3f575cec	0.8412616
199	0x3ee2f749	0.4432929
200	0xbebebf82	-0.37255484
201	0xbf45472c	-0.77061725
202	0x3e8531c7	0.2601454
203	0xbf20827a	-0.6269909
204	0xbf12e330	-0.5737791
205	0xbe864980	-0.2622795
206	0xbf357a63	-0.7088987
207	0xbf511825	-0.81677467
208	0xbdf949f7	-0.12172311
209	0xbf54ff6b	-0.83202237
210	0xbe3f5906	-0.18686303
211	0xbeae9a21	-0.34101966
212	0xbf3e7a5d	-0.7440546
213	0xbec29366	-0.3800308
214	0x3f5343a4	0.82525086
215	0xbf2fc7e6	-0.68664396
216	0x3f027394	0.5095761
217	0x3f73ca18	0.95230246
218	0xbf185474	-0.59503865
219	0x3ee25c69	0.44211128
220	0xbf6065ef	-0.8765554
221	0xbf15fb07	-0.5858616
222	0xbf228db5	-0.6349748
223	0x3eff7854	0.4989649
224	0xbeb0f67d	-0.34563056
225	0x3f421178	0.75807905
226	0xbeca7a58	-0.39546466
227	0x3f1d88db	0.6153695
228	0xbf71566a	-0.9427248
229	0xbf434151	-0.7627154
230	0x3f0a0eb4	0.53928685
231	0x3f25bc33	0.64740294
232	0x3d883fbc	0.06652781
233	0xbf1ceb90	-0.6129694
234	0xbf06864c	-0.5254867
235	0x3e67ba50	0.22629666
236	0x3f27f8a0	0.65613747
237	0x3f5ec9c7	0.8702664
238	0xbed680b1	-0.4189506
239	0xbf4c725b	-0.7986199
240	0x3f063c53	0.524358
241	0x3f2a8255	0.6660512
242	0x3f1018a3	0.5628759
243	0xbeeec1c9	-0.4663222
244	0xbf40dc80	-0.75336456
245	0xbead1290	-0.33803225
246	0xbf7ecf98	-0.9953551
247	0xbeb09c66	-0.34494323
248	0xbe61529d	-0.2200417
249	0x3e88a2ff	0.26686856
250	0xbf1ae679	-0.60507923
251	0x3e4150ee	0.18878528
252	0x3ec6ad9f	0.38804337
253	0xbf0aa2c0	-0.54154587
254	0xbece42e0	-0.40285397
255	0xbe8c7265	-0.27431026
