testdata/dnn/layers/rnn.prototxt.w_0.npy (npy, 90656 bytes, 1 tensors)

array f4 [17, 1332]
000000 90 5d 57 3f 2d c6 40 bf e6 0c 2d bf b2 92 a5 be
       0.8412714 -0.7530239 -0.67597806 -0.32338482
000010 79 41 e1 3e 1e 6b e9 be ad 45 31 bc 9c 54 94 3d
       0.43995264 -0.45589536 -0.010819835 0.072427005
000020 27 c5 38 3f 84 0c e2 3d 38 f7 de 3d 27 67 82 be
       0.7217583 0.110375434 0.10886997 -0.25469324
000030 09 18 cf 3e 30 7e 26 3f 29 9f 47 3f 08 d8 4f 39
       0.40448025 0.65036297 0.77977234 0.00019821536
000040 23 67 f7 be 9b b6 a6 3e a5 c9 f5 3d 48 ce 2c 3f
       -0.48320875 0.32561192 0.12001351 0.6750226
000050 9d cc 0c 3f 40 97 26 bf 9c 1e bc be 8c 1b 3b bf
       0.54999715 -0.6507454 -0.36742103 -0.7308891
000060 3d 19 39 bf d5 70 a2 3e 28 7b c0 be 8a 88 21 3f
       -0.72304136 0.3172671 -0.3759396 0.6309897
000070 7c 36 47 be 26 5a cf 3e 6c a0 5b 3f 30 13 10 3f
       -0.19454378 0.40498465 0.8579166 0.5627928
000080 74 37 4e 3f 4f e5 93 3e e6 5e ae be 78 2b 83 3e
       0.80553365 0.28885886 -0.34056777 0.25619102
000090 cc 26 5e bf 55 3d 8b 3d 2c 46 10 3f eb 4e 76 bf
       -0.8677795 0.067988075 0.56357074 -0.9621417
0000a0 3f 66 3c 3d 83 2d 44 be c8 3a 7f bf 78 c3 cd 3e
       0.045995947 -0.19157986 -0.9969907 0.40188193
0000b0 73 28 b1 3e 21 d3 33 be cf 6d 5c bd 51 2b 12 bc
       0.34601173 -0.17561008 -0.05381566 -0.00892146
0000c0 1f cc 09 3f 17 ee 42 3f 48 a1 40 bf dc 83 d7 be
       0.5382709 0.76144546 -0.75246096 -0.42092788
0000d0 89 94 47 3f 31 65 e1 be 40 0b ce bd 77 4e 23 bf
       0.7796102 -0.44022515 -0.100607395 -0.637916
0000e0 ff 40 76 3f 01 0f 7e bd 50 d5 6e 3f a6 5d 46 3f
       0.96192926 -0.062026028 0.9329424 0.77486646
0000f0 50 27 d3 3e 00 6d 74 be 45 51 12 3f 5c 0b 6f 3f
       0.4124093 -0.23869705 0.5715526 0.9337671
000100 1c d1 78 3f cc c0 4b 3f 48 d0 08 3f af 49 3b bd
       0.97194076 0.7959106 0.5344281 -0.045724567
000110 af 74 ac 3e 03 72 67 3f d6 cf 7f 3f 24 b3 3d be
       0.33682773 0.90408343 0.9992651 -0.18525368
000120 5b 05 04 be 0b 1e 4d bf 72 79 99 3e b4 90 3c 3d
       -0.12892668 -0.80123967 0.29975468 0.046036437
000130 1c b6 7b 3f 04 2f 59 bf 97 f2 8b 3e 9a a7 54 3f
       0.9832475 -0.84837365 0.2733352 0.8306824
000140 70 60 2a be 75 4a 9e 3e 9c a2 0c 3e 07 e5 3d 3f
       -0.1663835 0.3091618 0.13733906 0.74177593
000150 f5 b2 81 be f5 3c 70 3e 13 8d a3 be db 4e 37 bf
       -0.25331846 0.23460753 -0.3194357 -0.716047
000160 f6 ea d8 3e e1 10 10 3f 97 4e 4b bf 9e 09 33 3e
       0.4236676 0.56275755 -0.79416794 0.17484137
000170 9f 9f 13 bf b2 a3 49 bf 14 7d 34 bd 2b 47 5b 3e
       -0.5766544 -0.78765404 -0.044064596 0.21413867
000180 7b ca 53 3f 0c c5 5b bf 5d 66 5c be bd d8 2d 3f
       0.82730836 -0.85847545 -0.21523423 0.6790884
000190 a3 c5 d7 3d 09 66 6f bf ad c9 0a 3f 05 9b 51 3f
       0.10535743 -0.9351507 0.5421398 0.81877166
0001a0 b9 95 a5 bd 5d a4 58 3f 2d 20 6d bf 03 3a ae be
       -0.08085198 0.846258 -0.9262722 -0.34028634
0001b0 50 44 3a bf 09 73 5e bf 4a a5 17 be 8b a7 c4 3e
       -0.72760487 -0.8689428 -0.14809147 0.38409075
0001c0 13 d6 00 bf e6 06 57 bd 06 f6 fc be 1a a5 31 bf
       -0.5032665 -0.052496813 -0.4940645 -0.6939255
0001d0 91 f8 4a bf e5 47 0c bf 50 07 36 bf dd 20 2d 3f
       -0.7928553 -0.547972 -0.7110491 0.6762827
0001e0 fc 1d 6c bf 01 c6 5b bf 0a 3b 2a bf d1 14 80 be
       -0.9223325 -0.85849005 -0.66496336 -0.25015882
0001f0 d2 d8 f3 3d 4f f0 74 be c0 93 17 bf ad e2 19 3f
       0.119065896 -0.23919795 -0.59209824 0.60111505
000200 6c e8 52 3f 96 d0 7b bf 4a be fe be ec 84 a9 3e
       0.823859 -0.9836515 -0.49754554 0.33109224
000210 d4 b6 c0 3e 59 f9 31 bf 52 84 68 3f b5 0d 68 3f
       0.37639487 -0.695211 0.90826905 0.90645915
000220 a2 97 ab 3d 5f ab 2c be 14 08 22 be 48 d7 0a be
       0.08378531 -0.16862248 -0.15823394 -0.13558686
000230 75 d6 5f be 9f b0 6f 3e e1 db 18 3f 51 a2 7d bf
       -0.21859153 0.2340722 0.5971051 -0.990758
000240 05 ae 52 be f9 6f 65 3f e8 3f cc 3e 85 a5 09 3f
       -0.20574196 0.8962398 0.39892507 0.5376819
000250 ba e1 d3 3e 8e 0d d9 be ff 2f 45 bf 7d f8 5c bf
       0.41383153 -0.42393154 -0.7702636 -0.86316663
000260 e1 71 dd be 7a ea 41 3e 2f 6f a2 be 0e 4b 97 3c
       -0.43250945 0.18937102 -0.3172545 0.018468406
000270 29 b9 16 3f 0c 82 21 bf 1e 05 43 bf 88 5d c4 bd
       0.5887628 -0.6308906 -0.76179683 -0.09588152
000280 dc 67 12 3e b4 23 47 3f d9 8e 9c be 35 48 c3 be
       0.14297432 0.77788854 -0.30577734 -0.38141027
000290 d4 71 4d bf 79 5f 64 bf 93 b8 a9 3b d6 db 3f bf
       -0.8025181 -0.8920818 0.0051794737 -0.7494482
0002a0 e7 b8 01 3f cb bb be 3e 64 19 6c bf 03 d1 7a be
       0.50672764 0.3725265 -0.92226243 -0.24493794
0002b0 93 21 17 bf 45 ed 2a be 98 f3 36 bf 78 9c 47 be
       -0.59035605 -0.16692074 -0.71465445 -0.19493282
0002c0 57 49 dd be 89 15 dc be 02 f4 be be 9e 17 cf 3e
       -0.43220016 -0.4298518 -0.37295538 0.40447706
0002d0 82 66 de be 8f a4 23 3f 76 a1 50 3f 4b c7 e4 bd
       -0.43437582 0.6392297 0.8149637 -0.111708246
0002e0 3f d5 38 3f bf 33 7d bf fd 90 20 3f f2 91 24 3e
       0.7220039 -0.98907083 0.62721235 0.16071299
0002f0 1e 11 3c 3f e0 fd 7c 3f 0a f4 cf 3d e4 09 6c bf
       0.7346362 0.9882488 0.10153969 -0.9220259
000300 8a 0b 6a 3e 70 13 28 3f 28 26 32 3f f7 2d f1 be
       0.22855964 0.6565466 0.6958947 -0.4710538
000310 5b c6 a5 3d 06 4e 6d 3f 3a 7f ee 3e a9 8e 63 3e
       0.08094474 0.9269718 0.4658144 0.2222239
000320 36 4e 15 3e 36 70 51 bf 16 d2 2b bf 38 f8 1d 3f
       0.14580616 -0.81811845 -0.6711744 0.61706877
000330 68 d8 59 3f 8b 14 ac be 09 6d d7 3e ce 66 89 3e
       0.85095835 -0.33609423 0.42075375 0.26836246
000340 93 87 30 be 08 1e 14 bf 18 09 0c bf e2 9d 85 be
       -0.17239217 -0.57858324 -0.54701376 -0.26097018
000350 7b 0c 32 3f 5c 9f 34 3f c3 7e 16 bd 5d b7 d6 3d
       0.69550294 0.70555663 -0.036741983 0.104841925
000360 af ac 63 be 21 9f 67 3f c0 b6 6e bd c6 5e c5 bd
       -0.22233842 0.90477186 -0.058279753 -0.09637217
000370 10 b7 f8 3e ba 44 7e bf 53 8c 02 bf d7 77 d8 be
       0.48577166 -0.9932362 -0.5099537 -0.4227893
000380 2c 18 79 bf 04 24 1d 3e 9d de 55 bf 0d 66 43 3f
       -0.9730251 0.1534577 -0.83542806 0.7632759
000390 e6 c8 16 3c 70 26 1c bf b2 2f e9 be a7 6c 3a 3e
       0.009203171 -0.6099615 -0.455442 0.1820551
0003a0 7e 7a 8d be 42 4c f3 3c 4e 65 67 be 5f 97 9f 3e
       -0.27632517 0.029699448 -0.22597238 0.31170174
0003b0 92 dc 1b 3f 53 fa 26 3f bc f1 0e be 55 6e 87 be
       0.6088344 0.65225714 -0.13959402 -0.26451364
0003c0 d6 10 e9 3e fa fa 95 bd 2e ba 16 3e 67 62 79 3d
       0.45520657 -0.073232606 0.1471946 0.06088486
0003d0 d5 94 06 bf 99 31 c6 be 1b ec de be 2d 57 b5 3e
       -0.5257085 -0.38709715 -0.4353951 0.35418072
0003e0 12 ab 21 3f 61 4f f5 3b ed 1c 64 bf 63 c8 a3 3e
       0.6315166 0.0074862693 -0.8910664 0.3198882
0003f0 d1 1e f4 be cc fe b8 3d 96 38 2c 3f fc a8 e5 bd
       -0.4767976 0.09032974 0.67273843 -0.11213872
