testdata/dnn/layers/rnn.prototxt.w_3.npy (npy, 1236 bytes, 1 tensors)

array f4 [17, 17]
00000000: 0f8a 12be d343 0ebf 3f21 283f 712d 4b3f
00000010: 4b8c 053f 6854 75bf 8747 28bf 1a84 08bd
00000020: 9da4 3c3f d09f 2e3f 15c7 453f 7c3f b3be
00000030: 75df 0ebf 372c 8cbe 0342 c93d d484 653f
00000040: 790e 7fbf 99dd 74bf 5ef9 0a3f 3fa4 4e3f
00000050: a847 763f 81b2 fb3e 6ad1 00bd fabc 803e
00000060: 9c09 18bf 1036 553f 8de8 28bf f47c 2b3f
00000070: 4b8b 3cbe 8ac9 19bf 7837 ce3d c428 193e
00000080: b11e 7cbc 2be1 6b3f e6fc 2dbf 76dd 133f
00000090: 52a9 b83e 7b0b 35be b340 293f bc6a 63bf
000000a0: 3904 39bd 9dfb 31bf 34c5 96be f412 15bf
000000b0: 63d8 453f 7195 433f 8753 703e b375 c13e
000000c0: 9887 45bf 48ec 403f c9b1 303e b737 153f
000000d0: aeb8 01bf 70f1 40bf 7e2a 75bf 4a03 173d
000000e0: d35b 25be 569c 383f 0317 0bbf 8fcb 673f
000000f0: b9ab 393e ca09 fb3e 3a82 59bf aa2f 4b3f
00000100: bd84 c23e 53cd 193f 6fbb 503f 605d 4a3f
00000110: fd17 f03d 712d b83d 627d 573f 3f75 1f3f
00000120: 0c94 b03e 39a5 383e 79a1 773f 355d 573f
00000130: c026 b7be cadc 493f 6143 89be e1b2 353f
00000140: 6af0 79bf 4652 d23e 40e4 8a3e 7633 26bf
00000150: 4a94 41bf e2c5 33bf 50dc 493f 5939 0a3f
00000160: 3632 96be 1152 d1be f67a edbe 3981 963e
00000170: 7be3 d3bc 2916 79be 71f4 42bf d484 44bf
00000180: e90a 023f f205 283f 4a2e 75bf 77c3 da3e
00000190: a9cd 16bf 531c 713f b33a 2cbe 6ecf 3e3f
000001a0: b850 f13e 0f8f 093d d38f 73bf 299d 8a3e
000001b0: a76f 19be ca84 653f f783 3abe ce53 f0bd
000001c0: 240c 6c3f caad 553f 87d4 00bf 9ccc 783e
000001d0: 9272 7f3f d996 68bf a28f 4bbf d56d c9be
000001e0: 1b17 3c3f 4c23 f4be 35ef c33d 28ad 10bf
000001f0: d3c7 213f 5fa1 4abf 5e51 63bf e1c1 6a3f
00000200: ceb1 ec3e 12fb 9dbd 9bce 703f 07f1 7b3f
00000210: 91c3 e23e a7f6 1c3f 7728 333f 35fc 64bf
00000220: 3313 52bf 1a53 773f 1ef8 23be 68ab abbe
00000230: 364c 7a3f 1f75 733f f6c7 71bf 7f29 0e3f
00000240: 37d8 173f 65d6 b03b 4392 233f 115c f83e
00000250: cdf2 88be 8b3c 31bd 1fb8 903e 913a f33e
00000260: c13f be3d 93b5 683f 68a9 ef3e b159 503f
00000270: 7332 bdbd a9fa aebe 9701 c1be cb55 ba3d
00000280: 7c2c 913e ce05 8dbd e1d1 033f 09a0 63bd
00000290: bad7 70bf 9fc9 4c3f 1e92 463f 1321 4fbe
000002a0: 802c 1dbf 8908 79bf c74c ebbe 37fa 7abe
000002b0: f20d 4b3f 0739 c43e 5178 3b3f 7c4e ae3e
000002c0: 33d4 01bf 6c94 233f fcdf af3d 028a c13e
000002d0: 4a8a 20bc baa5 783f 3ccd 85be 1719 e1bd
000002e0: ea89 0cbe e28f 673f 86d2 15be 68eb 693f
000002f0: 38a5 22bf 4020 72bf 5e37 2b3f 03a3 f33e
00000300: b5a1 d83e 62f6 6bbe 09f5 e1bd 8cad 4dbe
00000310: 2e98 7fbe 8d0f fa3e 7368 dcbe f3ca d03e
00000320: cd28 673f 21e5 4c3f 054a ca3d 3f8d 5f3f
00000330: 9724 e93d ec44 133f 5355 45be a3ce 57be
00000340: f44a fdbe 4ac6 3d3e 7218 2e3f 50c4 0fbf
00000350: 7aa3 743e 421c 3bbf 8224 3c3e 2004 653f
00000360: d528 78be 1ff4 c93e 5a8b 313f 1470 ff3e
00000370: db47 26be b841 0fbf 7eda 0ebf 36e0 69be
00000380: 39a5 17bf bd28 ab3e a1c5 27be 9793 0d3e
00000390: feba 06bf 55a7 223f 8ce6 da3e 40b5 a3be
000003a0: bea0 abbe 7bff 5c3f 8f22 aabe 0c53 0dbe
000003b0: 6e06 0abf a179 33be 8b4a 63bf e81c 07bf
000003c0: 4c63 0e3f a703 bfbe 9578 533e 8cfa bbbd
000003d0: 1cff 23be e51a 66bf 1f95 09bf 54e4 8cbd
000003e0: 2ed2 65bf 47f4 493f 5f0a 243f 412b a5be
000003f0: b029 37bf 1838 033f bd52 7f3f fd5b 363f
-0.14310478 -0.5557224 0.6567573 0.79366213 0.52167195 -0.9583192 -0.6573414 -0.033329107
0.7368868 0.68212605 0.772569 -0.35009372 -0.5580972 -0.27377483 0.09827044 0.89655805
-0.9963146 -0.9565063 0.54286754 0.8071937 0.9620309 0.49159625 -0.031449713 0.25144178
-0.5938966 0.8328562 -0.65979844 0.6698754 -0.18412511 -0.6007315 0.100691736 0.14956957
-0.015388177 0.92140454 -0.6796402 0.577598 0.3606668 -0.1768016 0.6611435 -0.8883474
-0.045170043 -0.69524556 -0.2944733 -0.58232045 0.77283305 0.76399904 0.23469363 0.3778511
-0.77160025 0.75360537 0.1725532 0.5828814 -0.50672424 -0.75368404 -0.9576796 0.03686837
-0.1614831 0.7211355 -0.5433199 0.9054498 0.18131913 0.49030906 -0.84964335 0.79369605
0.37991896 0.60078925 0.81536 0.7904873 0.117233254 0.08993042 0.84175694 0.6228828
0.3448795 0.18031777 0.9673076 0.841266 -0.3577175 0.7885252 -0.2680922 0.7097607
-0.9763247 0.41078395 0.27127266 -0.64922273 -0.75616896 -0.7022382 0.78851795 0.53993756
-0.29335183 -0.40882924 -0.46382874 0.29395464 -0.025865307 -0.2432486 -0.7615424 -0.7676518
0.507979 0.6563407 -0.95773757 0.42727253 -0.5890756 0.94183844 -0.16819267 0.7453526
0.47131896 0.033583697 -0.95141333 0.2707303 -0.14983998 0.89655745 -0.18214403 -0.117347345
0.92206025 0.83468306 -0.5032429 0.24296802 0.99784195 -0.90855175 -0.7951604 -0.39341608
0.73472756 -0.4768318 0.095671095 -0.56514215 0.6319553 -0.7915248 -0.8879603 0.91702086
0.46229404 -0.077139035 0.94065255 0.98414654 0.4428983 0.6131386 0.6998362 -0.8944734
-0.82060546 0.9661118 -0.16012618 -0.3352921 0.9777254 0.9510059 -0.9444574 0.5553207
0.5931429 0.0053966516 0.6389505 0.4850774 -0.26747742 -0.04327063 0.28265473 0.4750562
0.09289504 0.9090206 0.46808934 0.8138686 -0.09238138 -0.34175614 -0.37696525 0.09098395
0.2835425 -0.06885873 0.51492125 -0.055572543 -0.9407917 0.7999515 0.7756671 -0.2022746
-0.61396027 -0.9727865 -0.45957014 -0.24509512 0.79318154 0.38324758 0.73230463 0.34044254
-0.50714415 0.6389835 0.085876435 0.37800604 -0.009798596 0.9712788 -0.26133144 -0.10991114
-0.13724485 0.9045392 -0.1463109 0.91374826 -0.63533354 -0.9458046 0.6688136 0.47585306
0.42310873 -0.23043206 -0.11033065 -0.20085734 -0.24960396 0.4883999 -0.43048438 0.40779838
0.9029663 0.8003712 0.09877399 0.873249 0.11383932 0.5752704 -0.1927083 -0.2107492
-0.49471247 0.18532673 0.6800605 -0.56158924 0.23890486 -0.73089993 0.18373302 0.8945942
-0.24234326 0.39444062 0.6935326 0.49890196 -0.16238348 -0.55959654 -0.5580214 -0.22839436
-0.59236485 0.33429518 -0.16383983 0.13825832 -0.5262908 0.6353658 0.42754018 -0.3197422
-0.33521074 0.8632733 -0.3322949 -0.13801211 -0.5391606 -0.17526866 -0.8878562 -0.5277848
0.55620265 -0.37307474 0.20651467 -0.091786474 -0.16015285 -0.8988479 -0.53743166 -0.06879488
-0.89773834 0.7888836 0.64078325 -0.32259563 -0.71547985 0.5125747 0.99735624 0.7123411
