testdata/dnn/layers/rnn.prototxt.w_2.npy (npy, 1236 bytes, 1 tensors)

array f4 [17, 17]
0.7607102 -0.760554 0.6008271 0.958544 -0.06637424 -0.0943993 -0.700078 -0.785207
-0.597464 0.08962997 0.7490459 0.7588415 -0.516341 -0.74470305 0.52011 -0.1742204
-0.5990987 -0.47924373 -0.88954663 -0.7459029 0.7519925 -0.46162704 -0.10517587 -0.7756704
0.7641038 0.0049407883 -0.9857723 -0.92873037 -0.91915125 0.04104728 0.8067895 -0.77815276
0.44500405 0.8322661 0.0642008 -0.74654216 -0.75032353 0.10346462 -0.22802141 0.013818158
0.076842956 -0.63150346 -0.44167167 0.11860452 -0.7326855 0.2011231 -0.9778338 -0.85993475
0.36670753 -0.33666998 -0.41199663 -0.17239726 -0.6033318 -0.15089738 0.11323442 -0.6762997
0.10384127 0.72576517 -0.3972636 0.7848395 -0.32251793 -0.8983166 0.57562786 -0.5073098
-0.6239579 0.2369547 -0.32295525 0.7035492 -0.40360814 0.3808723 0.22245961 -0.81351
-0.12594332 -0.85834366 -0.4471337 0.044307616 -0.25593755 -0.3876888 0.8831416 -0.49911794
-0.9894442 -0.10622441 -0.013894031 0.12503867 0.83099794 -0.5874436 0.4219908 0.41824841
0.6393354 0.66003036 -0.77542275 -0.350426 -0.3502145 0.41794676 0.3654812 -0.66945255
0.09531765 0.6902767 -0.9701493 0.8512509 0.3084523 0.53424335 -0.69599646 -0.042759713
0.70708954 0.40886718 0.8243766 -0.369105 0.997638 -0.13470292 -0.37029114 0.51341134
-0.4942624 0.5006013 -0.43504634 -0.55300796 0.06655091 -0.0009782473 0.24650872 0.72512954
0.966458 0.027006269 0.8295311 0.08928457 -0.019766437 -0.73589617 -0.16637908 -0.78017914
-0.026005251 -0.5881734 0.01984585 -0.17738147 0.031026617 0.59178436 0.013501082 -0.73751324
-0.47133592 0.69243395 0.14672098 -0.4954946 0.48979506 0.835089 0.8478945 -0.9338293
-0.18178211 0.65734404 0.32161352 0.3750917 0.15258987 0.63345706 -0.95391715 0.13560012
-0.45435858 -0.974958 -0.06730402 -0.40377173 0.09984505 0.526443 -0.6342153 -0.44661677
0.6032974 -0.45144898 0.25349194 0.8760447 0.8248222 -0.951447 -0.37659487 0.743903
-0.33626062 0.77553403 0.54616874 -0.34044483 0.23318727 -0.30658093 0.28133884 0.36654794
-0.8695382 0.460372 -0.16184847 0.5184895 -0.9680631 -0.76080024 0.6393421 0.046692125
-0.26159707 -0.80763817 0.075141825 -0.60435134 -0.028529217 0.21424346 -0.43718144 -0.15026772
0.54793465 0.0066143237 0.64215434 0.83547723 -0.9927389 -0.16059266 -0.40978643 0.4697503
0.86705804 0.429909 -0.10945973 0.7678539 0.73737407 0.7767264 0.5787593 0.21957202
-0.9550734 0.5116188 0.21303244 -0.4580801 -0.20315099 -0.6393803 0.07038473 -0.543225
0.7424133 -0.71899056 0.3854499 0.45524016 0.7546042 0.6166742 0.7854194 -0.31892985
0.72079456 0.029328078 -0.8488891 -0.06476605 -0.38408363 -0.010424377 0.83957016 0.06944008
-0.277989 0.43507382 -0.6704242 -0.31812245 0.025438532 0.5680871 -0.90287054 0.12309865
-0.012094941 -0.10298172 -0.5481718 0.73551947 0.96241796 0.76034445 0.28894553 -0.9572868
-0.8913248 0.7533379 -0.53251034 0.23676676 0.18442556 -0.747126 0.47196436 -0.11178008
00000000: e7bd 423f abb3 42bf cecf 193f 2463 753f
00000010: 38ef 87bd 6c54 c1bd 5038 33bf 5303 49bf
00000020: 67f3 18bf eb8f b73d 79c1 3f3f 7043 423f
00000030: ec2e 04bf dca4 3ebf ee25 053f d566 32be
00000040: 885e 19bf 6f5f f5be 54b9 63bf 7ef3 3ebf
00000050: 9582 403f 615a ecbe 7266 d7bd 5692 46bf
00000060: 4e9c 433f 56e6 a13b 935b 7cbf 46c1 6dbf
00000070: 7f4d 6bbf 3121 283d c289 4e3f 0535 47bf
00000080: 92d7 e33e 640f 553f b67b 833d 631d 3fbf
00000090: 3415 40bf 42e5 d33d 727e 69be 8e65 623c
000000a0: d75f 9d3d 36aa 21bf ca22 e2be ede6 f23d
000000b0: 4791 3bbf 37f3 4d3e 5153 7abf af24 5cbf
000000c0: 17c1 bb3e 0260 acbe 39f1 d2be e888 30be
000000d0: f473 1abf d884 1abe 73e7 e73d fa21 2dbf
000000e0: bbaa d43d bfcb 393f 2266 cbbe 3eeb 483f
000000f0: 1221 a5be 14f8 65bf 595c 133f 0edf 01bf
00000100: b4bb 1fbf 41a4 723e 645a a5be cd1b 343f
00000110: baa5 cebe b201 c33e 74cc 633e 3142 50bf
00000120: 49f7 00be 69bc 5bbf b5ee e4be e77b 353d
00000130: 3f0a 83be 257f c6be 9115 623f 638c ffbe
00000140: 374c 7dbf 2f8c d9bd caa3 63bc 230a 003e
00000150: 48bc 543f b462 16bf 2e0f d83e a824 d63e
00000160: 7cab 233f c0f7 283f 1b82 46bf 096b b3be
00000170: 514f b3be 1efd d53e 5a20 bb3e 3e61 2bbf
00000180: e635 c33d f9b5 303f b45b 78bf 94eb 593f
00000190: 76ed 9d3e 2cc4 083f d32c 32bf cf24 2fbd
000001a0: d203 353f 0a57 d13e 580a 533f 55fb bcbe
000001b0: 3465 7f3f 90ef 09be cd96 bdbe ed6e 033f
000001c0: f60f fdbe 6827 003f 65be debe ee91 0dbf
000001d0: d84b 883d 8838 80ba c86c 7c3e 17a2 393f
000001e0: cb69 773f 403c dd3c 265c 543f d4da b63d
000001f0: 39ed a1bc b163 3cbf 475f 2abe d2b9 47bf
00000200: f708 d5bc 8892 16bf c493 a23c 7da3 35be
00000210: 882b fe3c 2e7f 173f a433 5d3c abcd 3cbf
00000220: f152 f1be 5a43 313f 063e 163e 78b1 fdbe
00000230: 6bc6 fa3e 65c8 553f 9d0f 593f 700f 6fbf
00000240: 1725 3abe b347 283f 87aa a43e 050c c03e
00000250: 8540 1c3e 3e2a 223f ea33 74bf c2da 0a3e
00000260: b0a1 e8be d996 79bf b1d6 89bd 2bbb cebe
00000270: 907b cc3d f8c4 063f ef5b 22bf f4aa e4be
00000280: b371 1a3f 5224 e7be b2c9 813e 7744 603f
00000290: 8c27 533f 0892 73bf 0bd1 c0be 6d70 3e3f
000002a0: 5a2a acbe 6689 463f b7d1 0b3f c94e aebe
000002b0: a5c8 6e3e 2df8 9cbe a50b 903e 2cac bb3e
000002c0: 0e9a 5ebf e1b5 eb3e 9bbb 25be babb 043f
000002d0: fcd2 77bf cec3 42bf edab 233f 3e40 3f3d
000002e0: 0df0 85be 60c1 4ebf f5e3 993d c5b6 1abf
000002f0: 1bb6 e9bc a362 5b3e 3fd6 dfbe c8df 19be
00000300: 7245 0c3f f8bc d83b 3a64 243f d6e1 553f
00000310: 2324 7ebf 6772 24be 87cf d1be 1c83 f03e
00000320: 84f7 5d3f 081d dc3e 6c2c e0bd 1392 443f
00000330: 8cc4 3c3f 8bd7 463f 9229 143f 7dd7 603e
00000340: b17f 74bf 73f9 023f 2d25 5a3e 7a89 eabe
00000350: d006 50be 6dae 23bf df25 903d cb10 0bbf
00000360: cc0e 3e3f c40f 38bf b059 c53e 3d15 e93e
00000370: be2d 413f 5cde 1d3f 3f11 493f c64a a3be
00000380: fe85 383f 7041 f03c cc50 59bf 10a4 84bd
00000390: 9ca6 c4be 02cb 2abc 12ee 563f 9a36 8e3d
000003a0: 9354 8ebe ffc1 de3e eca0 2bbf f2e0 a2be
000003b0: 7864 d03c 286e 113f 8622 67bf 251b fc3d
000003c0: dc29 46bc 14e8 d2bd fd54 0cbf 014b 3c3f
000003d0: 0661 763f efa5 423f abf0 933e bf10 75bf
000003e0: dd2d 64bf c1da 403f 9952 08bf fc72 723e
000003f0: 0eda 3c3e a643 3fbf 50a5 f13e f4ec e4bd
